ir_version: 11
producer_name: "mobius"
producer_version: "0.1.0"
graph {
  node {
    input: "model.embed_tokens.weight"
    input: "input_ids"
    output: "v_model.embed_tokens.Gather_0"
    name: "model/embed_tokens/Gather_node_0"
    op_type: "Gather"
    metadata_props {
      key: "namespace"
      value: ": Qwen35CausalLMModel/model: Qwen35TextModel/embed_tokens: Embedding"
    }
    metadata_props {
      key: "pkg.onnxscript.class_hierarchy"
      value: "[\'Qwen35CausalLMModel\', \'Qwen35TextModel\', \'Embedding\']"
    }
    metadata_props {
      key: "pkg.onnxscript.name_scopes"
      value: "[\'\', \'model\', \'embed_tokens\']"
    }
  }
  node {
    input: "position_ids"
    output: "v_model.rotary_emb.Shape_1"
    name: "model/rotary_emb/Shape_node_1"
    op_type: "Shape"
    metadata_props {
      key: "namespace"
      value: ": Qwen35CausalLMModel/model: Qwen35TextModel/rotary_emb: InterleavedMRope"
    }
    metadata_props {
      key: "pkg.onnxscript.class_hierarchy"
      value: "[\'Qwen35CausalLMModel\', \'Qwen35TextModel\', \'InterleavedMRope\']"
    }
    metadata_props {
      key: "pkg.onnxscript.name_scopes"
      value: "[\'\', \'model\', \'rotary_emb\']"
    }
  }
  node {
    input: "v_model.rotary_emb.Shape_1"
    input: "const_1d_0"
    input: "const_1d_1"
    input: "const_1d_2"
    output: "v_model.rotary_emb.Slice_2"
    name: "model/rotary_emb/Slice_node_2"
    op_type: "Slice"
    metadata_props {
      key: "namespace"
      value: ": Qwen35CausalLMModel/model: Qwen35TextModel/rotary_emb: InterleavedMRope"
    }
    metadata_props {
      key: "pkg.onnxscript.class_hierarchy"
      value: "[\'Qwen35CausalLMModel\', \'Qwen35TextModel\', \'InterleavedMRope\']"
    }
    metadata_props {
      key: "pkg.onnxscript.name_scopes"
      value: "[\'\', \'model\', \'rotary_emb\']"
    }
  }
  node {
    output: "v_model.rotary_emb.Constant_3"
    name: "model/rotary_emb/Constant_node_3"
    op_type: "Constant"
    attribute {
      name: "value_ints"
      ints: 3
      type: INTS
    }
    metadata_props {
      key: "namespace"
      value: ": Qwen35CausalLMModel/model: Qwen35TextModel/rotary_emb: InterleavedMRope"
    }
    metadata_props {
      key: "pkg.onnxscript.class_hierarchy"
      value: "[\'Qwen35CausalLMModel\', \'Qwen35TextModel\', \'InterleavedMRope\']"
    }
    metadata_props {
      key: "pkg.onnxscript.name_scopes"
      value: "[\'\', \'model\', \'rotary_emb\']"
    }
  }
  node {
    input: "v_model.rotary_emb.Constant_3"
    input: "v_model.rotary_emb.Slice_2"
    output: "v_model.rotary_emb.Concat_4"
    name: "model/rotary_emb/Concat_node_4"
    op_type: "Concat"
    attribute {
      name: "axis"
      i: 0
      type: INT
    }
    metadata_props {
      key: "namespace"
      value: ": Qwen35CausalLMModel/model: Qwen35TextModel/rotary_emb: InterleavedMRope"
    }
    metadata_props {
      key: "pkg.onnxscript.class_hierarchy"
      value: "[\'Qwen35CausalLMModel\', \'Qwen35TextModel\', \'InterleavedMRope\']"
    }
    metadata_props {
      key: "pkg.onnxscript.name_scopes"
      value: "[\'\', \'model\', \'rotary_emb\']"
    }
  }
  node {
    input: "position_ids"
    input: "const_1d_2"
    output: "v_model.rotary_emb.Unsqueeze_5"
    name: "model/rotary_emb/Unsqueeze_node_5"
    op_type: "Unsqueeze"
    metadata_props {
      key: "namespace"
      value: ": Qwen35CausalLMModel/model: Qwen35TextModel/rotary_emb: InterleavedMRope"
    }
    metadata_props {
      key: "pkg.onnxscript.class_hierarchy"
      value: "[\'Qwen35CausalLMModel\', \'Qwen35TextModel\', \'InterleavedMRope\']"
    }
    metadata_props {
      key: "pkg.onnxscript.name_scopes"
      value: "[\'\', \'model\', \'rotary_emb\']"
    }
  }
  node {
    input: "v_model.rotary_emb.Unsqueeze_5"
    input: "v_model.rotary_emb.Concat_4"
    output: "v_model.rotary_emb.Expand_6"
    name: "model/rotary_emb/Expand_node_6"
    op_type: "Expand"
    metadata_props {
      key: "namespace"
      value: ": Qwen35CausalLMModel/model: Qwen35TextModel/rotary_emb: InterleavedMRope"
    }
    metadata_props {
      key: "pkg.onnxscript.class_hierarchy"
      value: "[\'Qwen35CausalLMModel\', \'Qwen35TextModel\', \'InterleavedMRope\']"
    }
    metadata_props {
      key: "pkg.onnxscript.name_scopes"
      value: "[\'\', \'model\', \'rotary_emb\']"
    }
  }
  node {
    input: "v_model.rotary_emb.Expand_6"
    input: "v_model.rotary_emb.Concat_4"
    output: "v_model.rotary_emb.Reshape_7"
    name: "model/rotary_emb/Reshape_node_7"
    op_type: "Reshape"
    metadata_props {
      key: "namespace"
      value: ": Qwen35CausalLMModel/model: Qwen35TextModel/rotary_emb: InterleavedMRope"
    }
    metadata_props {
      key: "pkg.onnxscript.class_hierarchy"
      value: "[\'Qwen35CausalLMModel\', \'Qwen35TextModel\', \'InterleavedMRope\']"
    }
    metadata_props {
      key: "pkg.onnxscript.name_scopes"
      value: "[\'\', \'model\', \'rotary_emb\']"
    }
  }
  node {
    input: "v_model.rotary_emb.Reshape_7"
    input: "const_1d_2"
    output: "v_model.rotary_emb.Gather_8"
    name: "model/rotary_emb/Gather_node_8"
    op_type: "Gather"
    attribute {
      name: "axis"
      i: 0
      type: INT
    }
    metadata_props {
      key: "namespace"
      value: ": Qwen35CausalLMModel/model: Qwen35TextModel/rotary_emb: InterleavedMRope"
    }
    metadata_props {
      key: "pkg.onnxscript.class_hierarchy"
      value: "[\'Qwen35CausalLMModel\', \'Qwen35TextModel\', \'InterleavedMRope\']"
    }
    metadata_props {
      key: "pkg.onnxscript.name_scopes"
      value: "[\'\', \'model\', \'rotary_emb\']"
    }
  }
  node {
    input: "v_model.rotary_emb.Gather_8"
    input: "const_1d_2"
    output: "v_model.rotary_emb.Squeeze_9"
    name: "model/rotary_emb/Squeeze_node_9"
    op_type: "Squeeze"
    metadata_props {
      key: "namespace"
      value: ": Qwen35CausalLMModel/model: Qwen35TextModel/rotary_emb: InterleavedMRope"
    }
    metadata_props {
      key: "pkg.onnxscript.class_hierarchy"
      value: "[\'Qwen35CausalLMModel\', \'Qwen35TextModel\', \'InterleavedMRope\']"
    }
    metadata_props {
      key: "pkg.onnxscript.name_scopes"
      value: "[\'\', \'model\', \'rotary_emb\']"
    }
  }
  node {
    input: "model.rotary_emb.cos_cache"
    input: "v_model.rotary_emb.Squeeze_9"
    output: "v_model.rotary_emb.Gather_10"
    name: "model/rotary_emb/Gather_node_10"
    op_type: "Gather"
    metadata_props {
      key: "namespace"
      value: ": Qwen35CausalLMModel/model: Qwen35TextModel/rotary_emb: InterleavedMRope"
    }
    metadata_props {
      key: "pkg.onnxscript.class_hierarchy"
      value: "[\'Qwen35CausalLMModel\', \'Qwen35TextModel\', \'InterleavedMRope\']"
    }
    metadata_props {
      key: "pkg.onnxscript.name_scopes"
      value: "[\'\', \'model\', \'rotary_emb\']"
    }
  }
  node {
    input: "model.rotary_emb.sin_cache"
    input: "v_model.rotary_emb.Squeeze_9"
    output: "v_model.rotary_emb.Gather_11"
    name: "model/rotary_emb/Gather_node_11"
    op_type: "Gather"
    metadata_props {
      key: "namespace"
      value: ": Qwen35CausalLMModel/model: Qwen35TextModel/rotary_emb: InterleavedMRope"
    }
    metadata_props {
      key: "pkg.onnxscript.class_hierarchy"
      value: "[\'Qwen35CausalLMModel\', \'Qwen35TextModel\', \'InterleavedMRope\']"
    }
    metadata_props {
      key: "pkg.onnxscript.name_scopes"
      value: "[\'\', \'model\', \'rotary_emb\']"
    }
  }
  node {
    input: "v_model.rotary_emb.Reshape_7"
    input: "const_1d_3"
    output: "v_model.rotary_emb.Gather_12"
    name: "model/rotary_emb/Gather_node_12"
    op_type: "Gather"
    attribute {
      name: "axis"
      i: 0
      type: INT
    }
    metadata_props {
      key: "namespace"
      value: ": Qwen35CausalLMModel/model: Qwen35TextModel/rotary_emb: InterleavedMRope"
    }
    metadata_props {
      key: "pkg.onnxscript.class_hierarchy"
      value: "[\'Qwen35CausalLMModel\', \'Qwen35TextModel\', \'InterleavedMRope\']"
    }
    metadata_props {
      key: "pkg.onnxscript.name_scopes"
      value: "[\'\', \'model\', \'rotary_emb\']"
    }
  }
  node {
    input: "v_model.rotary_emb.Gather_12"
    input: "const_1d_2"
    output: "v_model.rotary_emb.Squeeze_13"
    name: "model/rotary_emb/Squeeze_node_13"
    op_type: "Squeeze"
    metadata_props {
      key: "namespace"
      value: ": Qwen35CausalLMModel/model: Qwen35TextModel/rotary_emb: InterleavedMRope"
    }
    metadata_props {
      key: "pkg.onnxscript.class_hierarchy"
      value: "[\'Qwen35CausalLMModel\', \'Qwen35TextModel\', \'InterleavedMRope\']"
    }
    metadata_props {
      key: "pkg.onnxscript.name_scopes"
      value: "[\'\', \'model\', \'rotary_emb\']"
    }
  }
  node {
    input: "model.rotary_emb.cos_cache"
    input: "v_model.rotary_emb.Squeeze_13"
    output: "v_model.rotary_emb.Gather_14"
    name: "model/rotary_emb/Gather_node_14"
    op_type: "Gather"
    metadata_props {
      key: "namespace"
      value: ": Qwen35CausalLMModel/model: Qwen35TextModel/rotary_emb: InterleavedMRope"
    }
    metadata_props {
      key: "pkg.onnxscript.class_hierarchy"
      value: "[\'Qwen35CausalLMModel\', \'Qwen35TextModel\', \'InterleavedMRope\']"
    }
    metadata_props {
      key: "pkg.onnxscript.name_scopes"
      value: "[\'\', \'model\', \'rotary_emb\']"
    }
  }
  node {
    input: "model.rotary_emb.sin_cache"
    input: "v_model.rotary_emb.Squeeze_13"
    output: "v_model.rotary_emb.Gather_15"
    name: "model/rotary_emb/Gather_node_15"
    op_type: "Gather"
    metadata_props {
      key: "namespace"
      value: ": Qwen35CausalLMModel/model: Qwen35TextModel/rotary_emb: InterleavedMRope"
    }
    metadata_props {
      key: "pkg.onnxscript.class_hierarchy"
      value: "[\'Qwen35CausalLMModel\', \'Qwen35TextModel\', \'InterleavedMRope\']"
    }
    metadata_props {
      key: "pkg.onnxscript.name_scopes"
      value: "[\'\', \'model\', \'rotary_emb\']"
    }
  }
  node {
    input: "v_model.rotary_emb.Reshape_7"
    input: "const_1d_4"
    output: "v_model.rotary_emb.Gather_16"
    name: "model/rotary_emb/Gather_node_16"
    op_type: "Gather"
    attribute {
      name: "axis"
      i: 0
      type: INT
    }
    metadata_props {
      key: "namespace"
      value: ": Qwen35CausalLMModel/model: Qwen35TextModel/rotary_emb: InterleavedMRope"
    }
    metadata_props {
      key: "pkg.onnxscript.class_hierarchy"
      value: "[\'Qwen35CausalLMModel\', \'Qwen35TextModel\', \'InterleavedMRope\']"
    }
    metadata_props {
      key: "pkg.onnxscript.name_scopes"
      value: "[\'\', \'model\', \'rotary_emb\']"
    }
  }
  node {
    input: "v_model.rotary_emb.Gather_16"
    input: "const_1d_2"
    output: "v_model.rotary_emb.Squeeze_17"
    name: "model/rotary_emb/Squeeze_node_17"
    op_type: "Squeeze"
    metadata_props {
      key: "namespace"
      value: ": Qwen35CausalLMModel/model: Qwen35TextModel/rotary_emb: InterleavedMRope"
    }
    metadata_props {
      key: "pkg.onnxscript.class_hierarchy"
      value: "[\'Qwen35CausalLMModel\', \'Qwen35TextModel\', \'InterleavedMRope\']"
    }
    metadata_props {
      key: "pkg.onnxscript.name_scopes"
      value: "[\'\', \'model\', \'rotary_emb\']"
    }
  }
  node {
    input: "model.rotary_emb.cos_cache"
    input: "v_model.rotary_emb.Squeeze_17"
    output: "v_model.rotary_emb.Gather_18"
    name: "model/rotary_emb/Gather_node_18"
    op_type: "Gather"
    metadata_props {
      key: "namespace"
      value: ": Qwen35CausalLMModel/model: Qwen35TextModel/rotary_emb: InterleavedMRope"
    }
    metadata_props {
      key: "pkg.onnxscript.class_hierarchy"
      value: "[\'Qwen35CausalLMModel\', \'Qwen35TextModel\', \'InterleavedMRope\']"
    }
    metadata_props {
      key: "pkg.onnxscript.name_scopes"
      value: "[\'\', \'model\', \'rotary_emb\']"
    }
  }
  node {
    input: "model.rotary_emb.sin_cache"
    input: "v_model.rotary_emb.Squeeze_17"
    output: "v_model.rotary_emb.Gather_19"
    name: "model/rotary_emb/Gather_node_19"
    op_type: "Gather"
    metadata_props {
      key: "namespace"
      value: ": Qwen35CausalLMModel/model: Qwen35TextModel/rotary_emb: InterleavedMRope"
    }
    metadata_props {
      key: "pkg.onnxscript.class_hierarchy"
      value: "[\'Qwen35CausalLMModel\', \'Qwen35TextModel\', \'InterleavedMRope\']"
    }
    metadata_props {
      key: "pkg.onnxscript.name_scopes"
      value: "[\'\', \'model\', \'rotary_emb\']"
    }
  }
  node {
    input: "model.rotary_emb.h_mask"
    input: "v_model.rotary_emb.Gather_14"
    input: "v_model.rotary_emb.Gather_10"
    output: "v_model.rotary_emb.Where_20"
    name: "model/rotary_emb/Where_node_20"
    op_type: "Where"
    metadata_props {
      key: "namespace"
      value: ": Qwen35CausalLMModel/model: Qwen35TextModel/rotary_emb: InterleavedMRope"
    }
    metadata_props {
      key: "pkg.onnxscript.class_hierarchy"
      value: "[\'Qwen35CausalLMModel\', \'Qwen35TextModel\', \'InterleavedMRope\']"
    }
    metadata_props {
      key: "pkg.onnxscript.name_scopes"
      value: "[\'\', \'model\', \'rotary_emb\']"
    }
  }
  node {
    input: "model.rotary_emb.w_mask"
    input: "v_model.rotary_emb.Gather_18"
    input: "v_model.rotary_emb.Where_20"
    output: "v_model.rotary_emb.Where_21"
    name: "model/rotary_emb/Where_node_21"
    op_type: "Where"
    metadata_props {
      key: "namespace"
      value: ": Qwen35CausalLMModel/model: Qwen35TextModel/rotary_emb: InterleavedMRope"
    }
    metadata_props {
      key: "pkg.onnxscript.class_hierarchy"
      value: "[\'Qwen35CausalLMModel\', \'Qwen35TextModel\', \'InterleavedMRope\']"
    }
    metadata_props {
      key: "pkg.onnxscript.name_scopes"
      value: "[\'\', \'model\', \'rotary_emb\']"
    }
  }
  node {
    input: "model.rotary_emb.h_mask"
    input: "v_model.rotary_emb.Gather_15"
    input: "v_model.rotary_emb.Gather_11"
    output: "v_model.rotary_emb.Where_22"
    name: "model/rotary_emb/Where_node_22"
    op_type: "Where"
    metadata_props {
      key: "namespace"
      value: ": Qwen35CausalLMModel/model: Qwen35TextModel/rotary_emb: InterleavedMRope"
    }
    metadata_props {
      key: "pkg.onnxscript.class_hierarchy"
      value: "[\'Qwen35CausalLMModel\', \'Qwen35TextModel\', \'InterleavedMRope\']"
    }
    metadata_props {
      key: "pkg.onnxscript.name_scopes"
      value: "[\'\', \'model\', \'rotary_emb\']"
    }
  }
  node {
    input: "model.rotary_emb.w_mask"
    input: "v_model.rotary_emb.Gather_19"
    input: "v_model.rotary_emb.Where_22"
    output: "v_model.rotary_emb.Where_23"
    name: "model/rotary_emb/Where_node_23"
    op_type: "Where"
    metadata_props {
      key: "namespace"
      value: ": Qwen35CausalLMModel/model: Qwen35TextModel/rotary_emb: InterleavedMRope"
    }
    metadata_props {
      key: "pkg.onnxscript.class_hierarchy"
      value: "[\'Qwen35CausalLMModel\', \'Qwen35TextModel\', \'InterleavedMRope\']"
    }
    metadata_props {
      key: "pkg.onnxscript.name_scopes"
      value: "[\'\', \'model\', \'rotary_emb\']"
    }
  }
  node {
    input: "attention_mask"
    input: "const_1_i64"
    output: "v_model.CumSum_24"
    name: "model/CumSum_node_24"
    op_type: "CumSum"
    metadata_props {
      key: "namespace"
      value: ": Qwen35CausalLMModel/model: Qwen35TextModel"
    }
    metadata_props {
      key: "pkg.onnxscript.class_hierarchy"
      value: "[\'Qwen35CausalLMModel\', \'Qwen35TextModel\']"
    }
    metadata_props {
      key: "pkg.onnxscript.name_scopes"
      value: "[\'\', \'model\']"
    }
  }
  node {
    input: "v_model.CumSum_24"
    input: "const_1d_3"
    output: "v_model.Unsqueeze_25"
    name: "model/Unsqueeze_node_25"
    op_type: "Unsqueeze"
    metadata_props {
      key: "namespace"
      value: ": Qwen35CausalLMModel/model: Qwen35TextModel"
    }
    metadata_props {
      key: "pkg.onnxscript.class_hierarchy"
      value: "[\'Qwen35CausalLMModel\', \'Qwen35TextModel\']"
    }
    metadata_props {
      key: "pkg.onnxscript.name_scopes"
      value: "[\'\', \'model\']"
    }
  }
  node {
    input: "input_ids"
    output: "v_model.Shape_26"
    name: "model/Shape_node_26"
    op_type: "Shape"
    attribute {
      name: "end"
      i: 2
      type: INT
    }
    attribute {
      name: "start"
      i: 1
      type: INT
    }
    metadata_props {
      key: "namespace"
      value: ": Qwen35CausalLMModel/model: Qwen35TextModel"
    }
    metadata_props {
      key: "pkg.onnxscript.class_hierarchy"
      value: "[\'Qwen35CausalLMModel\', \'Qwen35TextModel\']"
    }
    metadata_props {
      key: "pkg.onnxscript.name_scopes"
      value: "[\'\', \'model\']"
    }
  }
  node {
    input: "attention_mask"
    output: "v_model.Shape_27"
    name: "model/Shape_node_27"
    op_type: "Shape"
    attribute {
      name: "end"
      i: 2
      type: INT
    }
    attribute {
      name: "start"
      i: 1
      type: INT
    }
    metadata_props {
      key: "namespace"
      value: ": Qwen35CausalLMModel/model: Qwen35TextModel"
    }
    metadata_props {
      key: "pkg.onnxscript.class_hierarchy"
      value: "[\'Qwen35CausalLMModel\', \'Qwen35TextModel\']"
    }
    metadata_props {
      key: "pkg.onnxscript.name_scopes"
      value: "[\'\', \'model\']"
    }
  }
  node {
    input: "v_model.Shape_27"
    input: "v_model.Shape_26"
    output: "v_model.Sub_28"
    name: "model/Sub_node_28"
    op_type: "Sub"
    metadata_props {
      key: "namespace"
      value: ": Qwen35CausalLMModel/model: Qwen35TextModel"
    }
    metadata_props {
      key: "pkg.onnxscript.class_hierarchy"
      value: "[\'Qwen35CausalLMModel\', \'Qwen35TextModel\']"
    }
    metadata_props {
      key: "pkg.onnxscript.name_scopes"
      value: "[\'\', \'model\']"
    }
  }
  node {
    input: "v_model.CumSum_24"
    input: "v_model.Sub_28"
    input: "v_model.Shape_27"
    input: "const_1d_6"
    output: "v_model.Slice_29"
    name: "model/Slice_node_29"
    op_type: "Slice"
    metadata_props {
      key: "namespace"
      value: ": Qwen35CausalLMModel/model: Qwen35TextModel"
    }
    metadata_props {
      key: "pkg.onnxscript.class_hierarchy"
      value: "[\'Qwen35CausalLMModel\', \'Qwen35TextModel\']"
    }
    metadata_props {
      key: "pkg.onnxscript.name_scopes"
      value: "[\'\', \'model\']"
    }
  }
  node {
    input: "v_model.Slice_29"
    input: "const_1d_4"
    output: "v_model.Unsqueeze_30"
    name: "model/Unsqueeze_node_30"
    op_type: "Unsqueeze"
    metadata_props {
      key: "namespace"
      value: ": Qwen35CausalLMModel/model: Qwen35TextModel"
    }
    metadata_props {
      key: "pkg.onnxscript.class_hierarchy"
      value: "[\'Qwen35CausalLMModel\', \'Qwen35TextModel\']"
    }
    metadata_props {
      key: "pkg.onnxscript.name_scopes"
      value: "[\'\', \'model\']"
    }
  }
  node {
    input: "v_model.Unsqueeze_30"
    input: "v_model.Unsqueeze_25"
    output: "v_model.GreaterOrEqual_31"
    name: "model/GreaterOrEqual_node_31"
    op_type: "GreaterOrEqual"
    metadata_props {
      key: "namespace"
      value: ": Qwen35CausalLMModel/model: Qwen35TextModel"
    }
    metadata_props {
      key: "pkg.onnxscript.class_hierarchy"
      value: "[\'Qwen35CausalLMModel\', \'Qwen35TextModel\']"
    }
    metadata_props {
      key: "pkg.onnxscript.name_scopes"
      value: "[\'\', \'model\']"
    }
  }
  node {
    input: "attention_mask"
    input: "const_1d_3"
    output: "v_model.Unsqueeze_32"
    name: "model/Unsqueeze_node_32"
    op_type: "Unsqueeze"
    metadata_props {
      key: "namespace"
      value: ": Qwen35CausalLMModel/model: Qwen35TextModel"
    }
    metadata_props {
      key: "pkg.onnxscript.class_hierarchy"
      value: "[\'Qwen35CausalLMModel\', \'Qwen35TextModel\']"
    }
    metadata_props {
      key: "pkg.onnxscript.name_scopes"
      value: "[\'\', \'model\']"
    }
  }
  node {
    input: "v_model.Unsqueeze_32"
    output: "v_model.Cast_33"
    name: "model/Cast_node_33"
    op_type: "Cast"
    attribute {
      name: "to"
      i: 9
      type: INT
    }
    metadata_props {
      key: "namespace"
      value: ": Qwen35CausalLMModel/model: Qwen35TextModel"
    }
    metadata_props {
      key: "pkg.onnxscript.class_hierarchy"
      value: "[\'Qwen35CausalLMModel\', \'Qwen35TextModel\']"
    }
    metadata_props {
      key: "pkg.onnxscript.name_scopes"
      value: "[\'\', \'model\']"
    }
  }
  node {
    input: "v_model.Cast_33"
    input: "v_model.GreaterOrEqual_31"
    output: "v_model.And_34"
    name: "model/And_node_34"
    op_type: "And"
    metadata_props {
      key: "namespace"
      value: ": Qwen35CausalLMModel/model: Qwen35TextModel"
    }
    metadata_props {
      key: "pkg.onnxscript.class_hierarchy"
      value: "[\'Qwen35CausalLMModel\', \'Qwen35TextModel\']"
    }
    metadata_props {
      key: "pkg.onnxscript.name_scopes"
      value: "[\'\', \'model\']"
    }
  }
  node {
    input: "v_model.And_34"
    input: "const_0.0_f32"
    input: "const_-65504.0_f32"
    output: "v_model.Where_35"
    name: "model/Where_node_35"
    op_type: "Where"
    metadata_props {
      key: "namespace"
      value: ": Qwen35CausalLMModel/model: Qwen35TextModel"
    }
    metadata_props {
      key: "pkg.onnxscript.class_hierarchy"
      value: "[\'Qwen35CausalLMModel\', \'Qwen35TextModel\']"
    }
    metadata_props {
      key: "pkg.onnxscript.name_scopes"
      value: "[\'\', \'model\']"
    }
  }
  node {
    input: "v_model.Where_35"
    output: "v_model.Cast_36"
    name: "model/Cast_node_36"
    op_type: "Cast"
    attribute {
      name: "to"
      i: 10
      type: INT
    }
    metadata_props {
      key: "namespace"
      value: ": Qwen35CausalLMModel/model: Qwen35TextModel"
    }
    metadata_props {
      key: "pkg.onnxscript.class_hierarchy"
      value: "[\'Qwen35CausalLMModel\', \'Qwen35TextModel\']"
    }
    metadata_props {
      key: "pkg.onnxscript.name_scopes"
      value: "[\'\', \'model\']"
    }
  }
  node {
    input: "v_model.Cast_36"
    input: "const_1d_3"
    output: "v_model.Unsqueeze_37"
    name: "model/Unsqueeze_node_37"
    op_type: "Unsqueeze"
    metadata_props {
      key: "namespace"
      value: ": Qwen35CausalLMModel/model: Qwen35TextModel"
    }
    metadata_props {
      key: "pkg.onnxscript.class_hierarchy"
      value: "[\'Qwen35CausalLMModel\', \'Qwen35TextModel\']"
    }
    metadata_props {
      key: "pkg.onnxscript.name_scopes"
      value: "[\'\', \'model\']"
    }
  }
  node {
    input: "model.layers.0.input_layernorm.weight"
    input: "const_1.0_f16"
    output: "v_model.layers.0.input_layernorm.Add_38"
    name: "model/layers.0/input_layernorm/Add_node_38"
    op_type: "Add"
    metadata_props {
      key: "namespace"
      value: ": Qwen35CausalLMModel/model: Qwen35TextModel/layers.0: Qwen35DecoderLayer/input_layernorm: OffsetRMSNorm"
    }
    metadata_props {
      key: "pkg.onnxscript.class_hierarchy"
      value: "[\'Qwen35CausalLMModel\', \'Qwen35TextModel\', \'Qwen35DecoderLayer\', \'OffsetRMSNorm\']"
    }
    metadata_props {
      key: "pkg.onnxscript.name_scopes"
      value: "[\'\', \'model\', \'layers.0\', \'input_layernorm\']"
    }
  }
  node {
    input: "v_model.embed_tokens.Gather_0"
    input: "v_model.layers.0.input_layernorm.Add_38"
    output: "v_model.layers.0.input_layernorm.RMSNormalization_39"
    name: "model/layers.0/input_layernorm/RMSNormalization_node_39"
    op_type: "RMSNormalization"
    attribute {
      name: "epsilon"
      f: 1e-06
      type: FLOAT
    }
    attribute {
      name: "axis"
      i: -1
      type: INT
    }
    metadata_props {
      key: "namespace"
      value: ": Qwen35CausalLMModel/model: Qwen35TextModel/layers.0: Qwen35DecoderLayer/input_layernorm: OffsetRMSNorm"
    }
    metadata_props {
      key: "pkg.onnxscript.class_hierarchy"
      value: "[\'Qwen35CausalLMModel\', \'Qwen35TextModel\', \'Qwen35DecoderLayer\', \'OffsetRMSNorm\']"
    }
    metadata_props {
      key: "pkg.onnxscript.name_scopes"
      value: "[\'\', \'model\', \'layers.0\', \'input_layernorm\']"
    }
  }
  node {
    input: "v_model.layers.0.input_layernorm.RMSNormalization_39"
    output: "v_model.layers.0.linear_attn.Shape_40"
    name: "model/layers.0/linear_attn/Shape_node_40"
    op_type: "Shape"
    attribute {
      name: "end"
      i: 1
      type: INT
    }
    attribute {
      name: "start"
      i: 0
      type: INT
    }
    metadata_props {
      key: "namespace"
      value: ": Qwen35CausalLMModel/model: Qwen35TextModel/layers.0: Qwen35DecoderLayer/linear_attn: GatedDeltaNet"
    }
    metadata_props {
      key: "pkg.onnxscript.class_hierarchy"
      value: "[\'Qwen35CausalLMModel\', \'Qwen35TextModel\', \'Qwen35DecoderLayer\', \'GatedDeltaNet\']"
    }
    metadata_props {
      key: "pkg.onnxscript.name_scopes"
      value: "[\'\', \'model\', \'layers.0\', \'linear_attn\']"
    }
  }
  node {
    input: "model.layers.0.linear_attn.in_proj_qkv.weight"
    output: "v_model.layers.0.linear_attn.in_proj_qkv.Transpose_41"
    name: "model/layers.0/linear_attn/in_proj_qkv/Transpose_node_41"
    op_type: "Transpose"
    attribute {
      name: "perm"
      ints: 1
      ints: 0
      type: INTS
    }
    metadata_props {
      key: "namespace"
      value: ": Qwen35CausalLMModel/model: Qwen35TextModel/layers.0: Qwen35DecoderLayer/linear_attn: GatedDeltaNet/in_proj_qkv: Linear"
    }
    metadata_props {
      key: "pkg.onnxscript.class_hierarchy"
      value: "[\'Qwen35CausalLMModel\', \'Qwen35TextModel\', \'Qwen35DecoderLayer\', \'GatedDeltaNet\', \'Linear\']"
    }
    metadata_props {
      key: "pkg.onnxscript.name_scopes"
      value: "[\'\', \'model\', \'layers.0\', \'linear_attn\', \'in_proj_qkv\']"
    }
  }
  node {
    input: "v_model.layers.0.input_layernorm.RMSNormalization_39"
    input: "v_model.layers.0.linear_attn.in_proj_qkv.Transpose_41"
    output: "v_model.layers.0.linear_attn.in_proj_qkv.MatMul_42"
    name: "model/layers.0/linear_attn/in_proj_qkv/MatMul_node_42"
    op_type: "MatMul"
    metadata_props {
      key: "namespace"
      value: ": Qwen35CausalLMModel/model: Qwen35TextModel/layers.0: Qwen35DecoderLayer/linear_attn: GatedDeltaNet/in_proj_qkv: Linear"
    }
    metadata_props {
      key: "pkg.onnxscript.class_hierarchy"
      value: "[\'Qwen35CausalLMModel\', \'Qwen35TextModel\', \'Qwen35DecoderLayer\', \'GatedDeltaNet\', \'Linear\']"
    }
    metadata_props {
      key: "pkg.onnxscript.name_scopes"
      value: "[\'\', \'model\', \'layers.0\', \'linear_attn\', \'in_proj_qkv\']"
    }
  }
  node {
    input: "model.layers.0.linear_attn.in_proj_z.weight"
    output: "v_model.layers.0.linear_attn.in_proj_z.Transpose_43"
    name: "model/layers.0/linear_attn/in_proj_z/Transpose_node_43"
    op_type: "Transpose"
    attribute {
      name: "perm"
      ints: 1
      ints: 0
      type: INTS
    }
    metadata_props {
      key: "namespace"
      value: ": Qwen35CausalLMModel/model: Qwen35TextModel/layers.0: Qwen35DecoderLayer/linear_attn: GatedDeltaNet/in_proj_z: Linear"
    }
    metadata_props {
      key: "pkg.onnxscript.class_hierarchy"
      value: "[\'Qwen35CausalLMModel\', \'Qwen35TextModel\', \'Qwen35DecoderLayer\', \'GatedDeltaNet\', \'Linear\']"
    }
    metadata_props {
      key: "pkg.onnxscript.name_scopes"
      value: "[\'\', \'model\', \'layers.0\', \'linear_attn\', \'in_proj_z\']"
    }
  }
  node {
    input: "v_model.layers.0.input_layernorm.RMSNormalization_39"
    input: "v_model.layers.0.linear_attn.in_proj_z.Transpose_43"
    output: "v_model.layers.0.linear_attn.in_proj_z.MatMul_44"
    name: "model/layers.0/linear_attn/in_proj_z/MatMul_node_44"
    op_type: "MatMul"
    metadata_props {
      key: "namespace"
      value: ": Qwen35CausalLMModel/model: Qwen35TextModel/layers.0: Qwen35DecoderLayer/linear_attn: GatedDeltaNet/in_proj_z: Linear"
    }
    metadata_props {
      key: "pkg.onnxscript.class_hierarchy"
      value: "[\'Qwen35CausalLMModel\', \'Qwen35TextModel\', \'Qwen35DecoderLayer\', \'GatedDeltaNet\', \'Linear\']"
    }
    metadata_props {
      key: "pkg.onnxscript.name_scopes"
      value: "[\'\', \'model\', \'layers.0\', \'linear_attn\', \'in_proj_z\']"
    }
  }
  node {
    input: "model.layers.0.linear_attn.in_proj_b.weight"
    output: "v_model.layers.0.linear_attn.in_proj_b.Transpose_45"
    name: "model/layers.0/linear_attn/in_proj_b/Transpose_node_45"
    op_type: "Transpose"
    attribute {
      name: "perm"
      ints: 1
      ints: 0
      type: INTS
    }
    metadata_props {
      key: "namespace"
      value: ": Qwen35CausalLMModel/model: Qwen35TextModel/layers.0: Qwen35DecoderLayer/linear_attn: GatedDeltaNet/in_proj_b: Linear"
    }
    metadata_props {
      key: "pkg.onnxscript.class_hierarchy"
      value: "[\'Qwen35CausalLMModel\', \'Qwen35TextModel\', \'Qwen35DecoderLayer\', \'GatedDeltaNet\', \'Linear\']"
    }
    metadata_props {
      key: "pkg.onnxscript.name_scopes"
      value: "[\'\', \'model\', \'layers.0\', \'linear_attn\', \'in_proj_b\']"
    }
  }
  node {
    input: "v_model.layers.0.input_layernorm.RMSNormalization_39"
    input: "v_model.layers.0.linear_attn.in_proj_b.Transpose_45"
    output: "v_model.layers.0.linear_attn.in_proj_b.MatMul_46"
    name: "model/layers.0/linear_attn/in_proj_b/MatMul_node_46"
    op_type: "MatMul"
    metadata_props {
      key: "namespace"
      value: ": Qwen35CausalLMModel/model: Qwen35TextModel/layers.0: Qwen35DecoderLayer/linear_attn: GatedDeltaNet/in_proj_b: Linear"
    }
    metadata_props {
      key: "pkg.onnxscript.class_hierarchy"
      value: "[\'Qwen35CausalLMModel\', \'Qwen35TextModel\', \'Qwen35DecoderLayer\', \'GatedDeltaNet\', \'Linear\']"
    }
    metadata_props {
      key: "pkg.onnxscript.name_scopes"
      value: "[\'\', \'model\', \'layers.0\', \'linear_attn\', \'in_proj_b\']"
    }
  }
  node {
    input: "model.layers.0.linear_attn.in_proj_a.weight"
    output: "v_model.layers.0.linear_attn.in_proj_a.Transpose_47"
    name: "model/layers.0/linear_attn/in_proj_a/Transpose_node_47"
    op_type: "Transpose"
    attribute {
      name: "perm"
      ints: 1
      ints: 0
      type: INTS
    }
    metadata_props {
      key: "namespace"
      value: ": Qwen35CausalLMModel/model: Qwen35TextModel/layers.0: Qwen35DecoderLayer/linear_attn: GatedDeltaNet/in_proj_a: Linear"
    }
    metadata_props {
      key: "pkg.onnxscript.class_hierarchy"
      value: "[\'Qwen35CausalLMModel\', \'Qwen35TextModel\', \'Qwen35DecoderLayer\', \'GatedDeltaNet\', \'Linear\']"
    }
    metadata_props {
      key: "pkg.onnxscript.name_scopes"
      value: "[\'\', \'model\', \'layers.0\', \'linear_attn\', \'in_proj_a\']"
    }
  }
  node {
    input: "v_model.layers.0.input_layernorm.RMSNormalization_39"
    input: "v_model.layers.0.linear_attn.in_proj_a.Transpose_47"
    output: "v_model.layers.0.linear_attn.in_proj_a.MatMul_48"
    name: "model/layers.0/linear_attn/in_proj_a/MatMul_node_48"
    op_type: "MatMul"
    metadata_props {
      key: "namespace"
      value: ": Qwen35CausalLMModel/model: Qwen35TextModel/layers.0: Qwen35DecoderLayer/linear_attn: GatedDeltaNet/in_proj_a: Linear"
    }
    metadata_props {
      key: "pkg.onnxscript.class_hierarchy"
      value: "[\'Qwen35CausalLMModel\', \'Qwen35TextModel\', \'Qwen35DecoderLayer\', \'GatedDeltaNet\', \'Linear\']"
    }
    metadata_props {
      key: "pkg.onnxscript.name_scopes"
      value: "[\'\', \'model\', \'layers.0\', \'linear_attn\', \'in_proj_a\']"
    }
  }
  node {
    input: "v_model.layers.0.linear_attn.in_proj_qkv.MatMul_42"
    output: "v_model.layers.0.linear_attn.Transpose_49"
    name: "model/layers.0/linear_attn/Transpose_node_49"
    op_type: "Transpose"
    attribute {
      name: "perm"
      ints: 0
      ints: 2
      ints: 1
      type: INTS
    }
    metadata_props {
      key: "namespace"
      value: ": Qwen35CausalLMModel/model: Qwen35TextModel/layers.0: Qwen35DecoderLayer/linear_attn: GatedDeltaNet"
    }
    metadata_props {
      key: "pkg.onnxscript.class_hierarchy"
      value: "[\'Qwen35CausalLMModel\', \'Qwen35TextModel\', \'Qwen35DecoderLayer\', \'GatedDeltaNet\']"
    }
    metadata_props {
      key: "pkg.onnxscript.name_scopes"
      value: "[\'\', \'model\', \'layers.0\', \'linear_attn\']"
    }
  }
  node {
    output: "v_model.layers.0.linear_attn.conv1d.Constant_50"
    name: "model/layers.0/linear_attn/conv1d/Constant_node_50"
    op_type: "Constant"
    attribute {
      name: "value_float"
      f: 0.0
      type: FLOAT
    }
    metadata_props {
      key: "namespace"
      value: ": Qwen35CausalLMModel/model: Qwen35TextModel/layers.0: Qwen35DecoderLayer/linear_attn: GatedDeltaNet/conv1d: _DepthwiseConv1d"
    }
    metadata_props {
      key: "pkg.onnxscript.class_hierarchy"
      value: "[\'Qwen35CausalLMModel\', \'Qwen35TextModel\', \'Qwen35DecoderLayer\', \'GatedDeltaNet\', \'_DepthwiseConv1d\']"
    }
    metadata_props {
      key: "pkg.onnxscript.name_scopes"
      value: "[\'\', \'model\', \'layers.0\', \'linear_attn\', \'conv1d\']"
    }
  }
  node {
    input: "v_model.layers.0.linear_attn.conv1d.Constant_50"
    input: "model.layers.0.linear_attn.conv1d.weight"
    output: "v_model.layers.0.linear_attn.conv1d.CastLike_51"
    name: "model/layers.0/linear_attn/conv1d/CastLike_node_51"
    op_type: "CastLike"
    metadata_props {
      key: "namespace"
      value: ": Qwen35CausalLMModel/model: Qwen35TextModel/layers.0: Qwen35DecoderLayer/linear_attn: GatedDeltaNet/conv1d: _DepthwiseConv1d"
    }
    metadata_props {
      key: "pkg.onnxscript.class_hierarchy"
      value: "[\'Qwen35CausalLMModel\', \'Qwen35TextModel\', \'Qwen35DecoderLayer\', \'GatedDeltaNet\', \'_DepthwiseConv1d\']"
    }
    metadata_props {
      key: "pkg.onnxscript.name_scopes"
      value: "[\'\', \'model\', \'layers.0\', \'linear_attn\', \'conv1d\']"
    }
  }
  node {
    output: "v_model.layers.0.linear_attn.conv1d.Constant_52"
    name: "model/layers.0/linear_attn/conv1d/Constant_node_52"
    op_type: "Constant"
    attribute {
      name: "value_ints"
      ints: 6144
      type: INTS
    }
    metadata_props {
      key: "namespace"
      value: ": Qwen35CausalLMModel/model: Qwen35TextModel/layers.0: Qwen35DecoderLayer/linear_attn: GatedDeltaNet/conv1d: _DepthwiseConv1d"
    }
    metadata_props {
      key: "pkg.onnxscript.class_hierarchy"
      value: "[\'Qwen35CausalLMModel\', \'Qwen35TextModel\', \'Qwen35DecoderLayer\', \'GatedDeltaNet\', \'_DepthwiseConv1d\']"
    }
    metadata_props {
      key: "pkg.onnxscript.name_scopes"
      value: "[\'\', \'model\', \'layers.0\', \'linear_attn\', \'conv1d\']"
    }
  }
  node {
    input: "v_model.layers.0.linear_attn.conv1d.CastLike_51"
    input: "v_model.layers.0.linear_attn.conv1d.Constant_52"
    output: "v_model.layers.0.linear_attn.conv1d.Expand_53"
    name: "model/layers.0/linear_attn/conv1d/Expand_node_53"
    op_type: "Expand"
    metadata_props {
      key: "namespace"
      value: ": Qwen35CausalLMModel/model: Qwen35TextModel/layers.0: Qwen35DecoderLayer/linear_attn: GatedDeltaNet/conv1d: _DepthwiseConv1d"
    }
    metadata_props {
      key: "pkg.onnxscript.class_hierarchy"
      value: "[\'Qwen35CausalLMModel\', \'Qwen35TextModel\', \'Qwen35DecoderLayer\', \'GatedDeltaNet\', \'_DepthwiseConv1d\']"
    }
    metadata_props {
      key: "pkg.onnxscript.name_scopes"
      value: "[\'\', \'model\', \'layers.0\', \'linear_attn\', \'conv1d\']"
    }
  }
  node {
    input: "v_model.layers.0.linear_attn.Transpose_49"
    input: "model.layers.0.linear_attn.conv1d.weight"
    input: "v_model.layers.0.linear_attn.conv1d.Expand_53"
    input: "past_key_values.0.conv_state"
    output: "v_model.layers.0.linear_attn.conv1d.CausalConv1DWithState_54_0"
    output: "present.0.conv_state"
    name: "model/layers.0/linear_attn/conv1d/CausalConv1DWithState_node_54"
    op_type: "CausalConv1DWithState"
    attribute {
      name: "activation"
      s: "silu"
      type: STRING
    }
    domain: "com.microsoft"
    metadata_props {
      key: "namespace"
      value: ": Qwen35CausalLMModel/model: Qwen35TextModel/layers.0: Qwen35DecoderLayer/linear_attn: GatedDeltaNet/conv1d: _DepthwiseConv1d"
    }
    metadata_props {
      key: "pkg.onnxscript.class_hierarchy"
      value: "[\'Qwen35CausalLMModel\', \'Qwen35TextModel\', \'Qwen35DecoderLayer\', \'GatedDeltaNet\', \'_DepthwiseConv1d\']"
    }
    metadata_props {
      key: "pkg.onnxscript.name_scopes"
      value: "[\'\', \'model\', \'layers.0\', \'linear_attn\', \'conv1d\']"
    }
    metadata_props {
      key: "pkg.onnxscript.shape_inference_error"
      value: "No schema registered for \'CausalConv1DWithState\' version \'24\' and domain \'com.microsoft\'!"
    }
  }
  node {
    input: "v_model.layers.0.linear_attn.conv1d.CausalConv1DWithState_54_0"
    output: "v_model.layers.0.linear_attn.Transpose_55"
    name: "model/layers.0/linear_attn/Transpose_node_55"
    op_type: "Transpose"
    attribute {
      name: "perm"
      ints: 0
      ints: 2
      ints: 1
      type: INTS
    }
    metadata_props {
      key: "namespace"
      value: ": Qwen35CausalLMModel/model: Qwen35TextModel/layers.0: Qwen35DecoderLayer/linear_attn: GatedDeltaNet"
    }
    metadata_props {
      key: "pkg.onnxscript.class_hierarchy"
      value: "[\'Qwen35CausalLMModel\', \'Qwen35TextModel\', \'Qwen35DecoderLayer\', \'GatedDeltaNet\']"
    }
    metadata_props {
      key: "pkg.onnxscript.name_scopes"
      value: "[\'\', \'model\', \'layers.0\', \'linear_attn\']"
    }
    metadata_props {
      key: "pkg.onnxscript.shape_inference_error"
      value: "Type of input 0 value v_model.layers.0.linear_attn.conv1d.CausalConv1DWithState_54_0 of node model/layers.0/linear_attn/Transpose_node_55 not known"
    }
  }
  node {
    output: "v_model.layers.0.linear_attn.Constant_56"
    name: "model/layers.0/linear_attn/Constant_node_56"
    op_type: "Constant"
    attribute {
      name: "value_ints"
      ints: 2048
      ints: 2048
      ints: 2048
      type: INTS
    }
    metadata_props {
      key: "namespace"
      value: ": Qwen35CausalLMModel/model: Qwen35TextModel/layers.0: Qwen35DecoderLayer/linear_attn: GatedDeltaNet"
    }
    metadata_props {
      key: "pkg.onnxscript.class_hierarchy"
      value: "[\'Qwen35CausalLMModel\', \'Qwen35TextModel\', \'Qwen35DecoderLayer\', \'GatedDeltaNet\']"
    }
    metadata_props {
      key: "pkg.onnxscript.name_scopes"
      value: "[\'\', \'model\', \'layers.0\', \'linear_attn\']"
    }
  }
  node {
    input: "v_model.layers.0.linear_attn.Transpose_55"
    input: "v_model.layers.0.linear_attn.Constant_56"
    output: "v_model.layers.0.linear_attn.Split_57_0"
    output: "v_model.layers.0.linear_attn.Split_57_1"
    output: "v_model.layers.0.linear_attn.Split_57_2"
    name: "model/layers.0/linear_attn/Split_node_57"
    op_type: "Split"
    attribute {
      name: "axis"
      i: -1
      type: INT
    }
    metadata_props {
      key: "namespace"
      value: ": Qwen35CausalLMModel/model: Qwen35TextModel/layers.0: Qwen35DecoderLayer/linear_attn: GatedDeltaNet"
    }
    metadata_props {
      key: "pkg.onnxscript.class_hierarchy"
      value: "[\'Qwen35CausalLMModel\', \'Qwen35TextModel\', \'Qwen35DecoderLayer\', \'GatedDeltaNet\']"
    }
    metadata_props {
      key: "pkg.onnxscript.name_scopes"
      value: "[\'\', \'model\', \'layers.0\', \'linear_attn\']"
    }
    metadata_props {
      key: "pkg.onnxscript.shape_inference_error"
      value: "Type of input 0 value v_model.layers.0.linear_attn.Transpose_55 of node model/layers.0/linear_attn/Split_node_57 not known"
    }
  }
  node {
    input: "v_model.layers.0.input_layernorm.RMSNormalization_39"
    output: "v_model.layers.0.linear_attn.Shape_58"
    name: "model/layers.0/linear_attn/Shape_node_58"
    op_type: "Shape"
    attribute {
      name: "end"
      i: 2
      type: INT
    }
    attribute {
      name: "start"
      i: 1
      type: INT
    }
    metadata_props {
      key: "namespace"
      value: ": Qwen35CausalLMModel/model: Qwen35TextModel/layers.0: Qwen35DecoderLayer/linear_attn: GatedDeltaNet"
    }
    metadata_props {
      key: "pkg.onnxscript.class_hierarchy"
      value: "[\'Qwen35CausalLMModel\', \'Qwen35TextModel\', \'Qwen35DecoderLayer\', \'GatedDeltaNet\']"
    }
    metadata_props {
      key: "pkg.onnxscript.name_scopes"
      value: "[\'\', \'model\', \'layers.0\', \'linear_attn\']"
    }
  }
  node {
    output: "v_model.layers.0.linear_attn.Constant_59"
    name: "model/layers.0/linear_attn/Constant_node_59"
    op_type: "Constant"
    attribute {
      name: "value_ints"
      ints: 16
      type: INTS
    }
    metadata_props {
      key: "namespace"
      value: ": Qwen35CausalLMModel/model: Qwen35TextModel/layers.0: Qwen35DecoderLayer/linear_attn: GatedDeltaNet"
    }
    metadata_props {
      key: "pkg.onnxscript.class_hierarchy"
      value: "[\'Qwen35CausalLMModel\', \'Qwen35TextModel\', \'Qwen35DecoderLayer\', \'GatedDeltaNet\']"
    }
    metadata_props {
      key: "pkg.onnxscript.name_scopes"
      value: "[\'\', \'model\', \'layers.0\', \'linear_attn\']"
    }
  }
  node {
    output: "v_model.layers.0.linear_attn.Constant_60"
    name: "model/layers.0/linear_attn/Constant_node_60"
    op_type: "Constant"
    attribute {
      name: "value_ints"
      ints: 128
      type: INTS
    }
    metadata_props {
      key: "namespace"
      value: ": Qwen35CausalLMModel/model: Qwen35TextModel/layers.0: Qwen35DecoderLayer/linear_attn: GatedDeltaNet"
    }
    metadata_props {
      key: "pkg.onnxscript.class_hierarchy"
      value: "[\'Qwen35CausalLMModel\', \'Qwen35TextModel\', \'Qwen35DecoderLayer\', \'GatedDeltaNet\']"
    }
    metadata_props {
      key: "pkg.onnxscript.name_scopes"
      value: "[\'\', \'model\', \'layers.0\', \'linear_attn\']"
    }
  }
  node {
    input: "v_model.layers.0.linear_attn.Shape_40"
    input: "v_model.layers.0.linear_attn.Shape_58"
    input: "v_model.layers.0.linear_attn.Constant_59"
    input: "v_model.layers.0.linear_attn.Constant_60"
    output: "v_model.layers.0.linear_attn.Concat_61"
    name: "model/layers.0/linear_attn/Concat_node_61"
    op_type: "Concat"
    attribute {
      name: "axis"
      i: 0
      type: INT
    }
    metadata_props {
      key: "namespace"
      value: ": Qwen35CausalLMModel/model: Qwen35TextModel/layers.0: Qwen35DecoderLayer/linear_attn: GatedDeltaNet"
    }
    metadata_props {
      key: "pkg.onnxscript.class_hierarchy"
      value: "[\'Qwen35CausalLMModel\', \'Qwen35TextModel\', \'Qwen35DecoderLayer\', \'GatedDeltaNet\']"
    }
    metadata_props {
      key: "pkg.onnxscript.name_scopes"
      value: "[\'\', \'model\', \'layers.0\', \'linear_attn\']"
    }
  }
  node {
    input: "v_model.layers.0.linear_attn.Split_57_0"
    input: "v_model.layers.0.linear_attn.Concat_61"
    output: "v_model.layers.0.linear_attn.Reshape_62"
    name: "model/layers.0/linear_attn/Reshape_node_62"
    op_type: "Reshape"
    metadata_props {
      key: "namespace"
      value: ": Qwen35CausalLMModel/model: Qwen35TextModel/layers.0: Qwen35DecoderLayer/linear_attn: GatedDeltaNet"
    }
    metadata_props {
      key: "pkg.onnxscript.class_hierarchy"
      value: "[\'Qwen35CausalLMModel\', \'Qwen35TextModel\', \'Qwen35DecoderLayer\', \'GatedDeltaNet\']"
    }
    metadata_props {
      key: "pkg.onnxscript.name_scopes"
      value: "[\'\', \'model\', \'layers.0\', \'linear_attn\']"
    }
    metadata_props {
      key: "pkg.onnxscript.shape_inference_error"
      value: "Type of input 0 value v_model.layers.0.linear_attn.Split_57_0 of node model/layers.0/linear_attn/Reshape_node_62 not known"
    }
  }
  node {
    input: "v_model.layers.0.linear_attn.Split_57_1"
    input: "v_model.layers.0.linear_attn.Concat_61"
    output: "v_model.layers.0.linear_attn.Reshape_63"
    name: "model/layers.0/linear_attn/Reshape_node_63"
    op_type: "Reshape"
    metadata_props {
      key: "namespace"
      value: ": Qwen35CausalLMModel/model: Qwen35TextModel/layers.0: Qwen35DecoderLayer/linear_attn: GatedDeltaNet"
    }
    metadata_props {
      key: "pkg.onnxscript.class_hierarchy"
      value: "[\'Qwen35CausalLMModel\', \'Qwen35TextModel\', \'Qwen35DecoderLayer\', \'GatedDeltaNet\']"
    }
    metadata_props {
      key: "pkg.onnxscript.name_scopes"
      value: "[\'\', \'model\', \'layers.0\', \'linear_attn\']"
    }
    metadata_props {
      key: "pkg.onnxscript.shape_inference_error"
      value: "Type of input 0 value v_model.layers.0.linear_attn.Split_57_1 of node model/layers.0/linear_attn/Reshape_node_63 not known"
    }
  }
  node {
    input: "v_model.layers.0.linear_attn.Split_57_2"
    input: "v_model.layers.0.linear_attn.Concat_61"
    output: "v_model.layers.0.linear_attn.Reshape_67"
    name: "model/layers.0/linear_attn/Reshape_node_67"
    op_type: "Reshape"
    metadata_props {
      key: "namespace"
      value: ": Qwen35CausalLMModel/model: Qwen35TextModel/layers.0: Qwen35DecoderLayer/linear_attn: GatedDeltaNet"
    }
    metadata_props {
      key: "pkg.onnxscript.class_hierarchy"
      value: "[\'Qwen35CausalLMModel\', \'Qwen35TextModel\', \'Qwen35DecoderLayer\', \'GatedDeltaNet\']"
    }
    metadata_props {
      key: "pkg.onnxscript.name_scopes"
      value: "[\'\', \'model\', \'layers.0\', \'linear_attn\']"
    }
    metadata_props {
      key: "pkg.onnxscript.shape_inference_error"
      value: "Type of input 0 value v_model.layers.0.linear_attn.Split_57_2 of node model/layers.0/linear_attn/Reshape_node_67 not known"
    }
  }
  node {
    input: "v_model.layers.0.linear_attn.in_proj_z.MatMul_44"
    input: "v_model.layers.0.linear_attn.Concat_61"
    output: "v_model.layers.0.linear_attn.Reshape_68"
    name: "model/layers.0/linear_attn/Reshape_node_68"
    op_type: "Reshape"
    metadata_props {
      key: "namespace"
      value: ": Qwen35CausalLMModel/model: Qwen35TextModel/layers.0: Qwen35DecoderLayer/linear_attn: GatedDeltaNet"
    }
    metadata_props {
      key: "pkg.onnxscript.class_hierarchy"
      value: "[\'Qwen35CausalLMModel\', \'Qwen35TextModel\', \'Qwen35DecoderLayer\', \'GatedDeltaNet\']"
    }
    metadata_props {
      key: "pkg.onnxscript.name_scopes"
      value: "[\'\', \'model\', \'layers.0\', \'linear_attn\']"
    }
  }
  node {
    input: "v_model.layers.0.linear_attn.Reshape_62"
    input: "v_model.layers.0.linear_attn.Reshape_62"
    output: "v_model.layers.0.linear_attn.Mul_69"
    name: "model/layers.0/linear_attn/Mul_node_69"
    op_type: "Mul"
    metadata_props {
      key: "namespace"
      value: ": Qwen35CausalLMModel/model: Qwen35TextModel/layers.0: Qwen35DecoderLayer/linear_attn: GatedDeltaNet"
    }
    metadata_props {
      key: "pkg.onnxscript.class_hierarchy"
      value: "[\'Qwen35CausalLMModel\', \'Qwen35TextModel\', \'Qwen35DecoderLayer\', \'GatedDeltaNet\']"
    }
    metadata_props {
      key: "pkg.onnxscript.name_scopes"
      value: "[\'\', \'model\', \'layers.0\', \'linear_attn\']"
    }
    metadata_props {
      key: "pkg.onnxscript.shape_inference_error"
      value: "Type of input 0 value v_model.layers.0.linear_attn.Reshape_62 of node model/layers.0/linear_attn/Mul_node_69 not known"
    }
  }
  node {
    input: "v_model.layers.0.linear_attn.Mul_69"
    input: "const_1d_10"
    output: "v_model.layers.0.linear_attn.ReduceSum_70"
    name: "model/layers.0/linear_attn/ReduceSum_node_70"
    op_type: "ReduceSum"
    attribute {
      name: "keepdims"
      i: 1
      type: INT
    }
    metadata_props {
      key: "namespace"
      value: ": Qwen35CausalLMModel/model: Qwen35TextModel/layers.0: Qwen35DecoderLayer/linear_attn: GatedDeltaNet"
    }
    metadata_props {
      key: "pkg.onnxscript.class_hierarchy"
      value: "[\'Qwen35CausalLMModel\', \'Qwen35TextModel\', \'Qwen35DecoderLayer\', \'GatedDeltaNet\']"
    }
    metadata_props {
      key: "pkg.onnxscript.name_scopes"
      value: "[\'\', \'model\', \'layers.0\', \'linear_attn\']"
    }
    metadata_props {
      key: "pkg.onnxscript.shape_inference_error"
      value: "Type of input 0 value v_model.layers.0.linear_attn.Mul_69 of node model/layers.0/linear_attn/ReduceSum_node_70 not known"
    }
  }
  node {
    output: "v_model.layers.0.linear_attn.Constant_71"
    name: "model/layers.0/linear_attn/Constant_node_71"
    op_type: "Constant"
    attribute {
      name: "value_float"
      f: 1e-06
      type: FLOAT
    }
    metadata_props {
      key: "namespace"
      value: ": Qwen35CausalLMModel/model: Qwen35TextModel/layers.0: Qwen35DecoderLayer/linear_attn: GatedDeltaNet"
    }
    metadata_props {
      key: "pkg.onnxscript.class_hierarchy"
      value: "[\'Qwen35CausalLMModel\', \'Qwen35TextModel\', \'Qwen35DecoderLayer\', \'GatedDeltaNet\']"
    }
    metadata_props {
      key: "pkg.onnxscript.name_scopes"
      value: "[\'\', \'model\', \'layers.0\', \'linear_attn\']"
    }
  }
  node {
    input: "v_model.layers.0.linear_attn.Constant_71"
    input: "v_model.layers.0.linear_attn.Reshape_62"
    output: "v_model.layers.0.linear_attn.CastLike_72"
    name: "model/layers.0/linear_attn/CastLike_node_72"
    op_type: "CastLike"
    metadata_props {
      key: "namespace"
      value: ": Qwen35CausalLMModel/model: Qwen35TextModel/layers.0: Qwen35DecoderLayer/linear_attn: GatedDeltaNet"
    }
    metadata_props {
      key: "pkg.onnxscript.class_hierarchy"
      value: "[\'Qwen35CausalLMModel\', \'Qwen35TextModel\', \'Qwen35DecoderLayer\', \'GatedDeltaNet\']"
    }
    metadata_props {
      key: "pkg.onnxscript.name_scopes"
      value: "[\'\', \'model\', \'layers.0\', \'linear_attn\']"
    }
    metadata_props {
      key: "pkg.onnxscript.shape_inference_error"
      value: "Type of input 1 value v_model.layers.0.linear_attn.Reshape_62 of node model/layers.0/linear_attn/CastLike_node_72 not known"
    }
  }
  node {
    input: "v_model.layers.0.linear_attn.ReduceSum_70"
    input: "v_model.layers.0.linear_attn.CastLike_72"
    output: "v_model.layers.0.linear_attn.Add_73"
    name: "model/layers.0/linear_attn/Add_node_73"
    op_type: "Add"
    metadata_props {
      key: "namespace"
      value: ": Qwen35CausalLMModel/model: Qwen35TextModel/layers.0: Qwen35DecoderLayer/linear_attn: GatedDeltaNet"
    }
    metadata_props {
      key: "pkg.onnxscript.class_hierarchy"
      value: "[\'Qwen35CausalLMModel\', \'Qwen35TextModel\', \'Qwen35DecoderLayer\', \'GatedDeltaNet\']"
    }
    metadata_props {
      key: "pkg.onnxscript.name_scopes"
      value: "[\'\', \'model\', \'layers.0\', \'linear_attn\']"
    }
    metadata_props {
      key: "pkg.onnxscript.shape_inference_error"
      value: "Type of input 0 value v_model.layers.0.linear_attn.ReduceSum_70 of node model/layers.0/linear_attn/Add_node_73 not known"
    }
  }
  node {
    input: "v_model.layers.0.linear_attn.Add_73"
    output: "v_model.layers.0.linear_attn.Sqrt_74"
    name: "model/layers.0/linear_attn/Sqrt_node_74"
    op_type: "Sqrt"
    metadata_props {
      key: "namespace"
      value: ": Qwen35CausalLMModel/model: Qwen35TextModel/layers.0: Qwen35DecoderLayer/linear_attn: GatedDeltaNet"
    }
    metadata_props {
      key: "pkg.onnxscript.class_hierarchy"
      value: "[\'Qwen35CausalLMModel\', \'Qwen35TextModel\', \'Qwen35DecoderLayer\', \'GatedDeltaNet\']"
    }
    metadata_props {
      key: "pkg.onnxscript.name_scopes"
      value: "[\'\', \'model\', \'layers.0\', \'linear_attn\']"
    }
    metadata_props {
      key: "pkg.onnxscript.shape_inference_error"
      value: "Type of input 0 value v_model.layers.0.linear_attn.Add_73 of node model/layers.0/linear_attn/Sqrt_node_74 not known"
    }
  }
  node {
    input: "v_model.layers.0.linear_attn.Sqrt_74"
    output: "v_model.layers.0.linear_attn.Reciprocal_75"
    name: "model/layers.0/linear_attn/Reciprocal_node_75"
    op_type: "Reciprocal"
    metadata_props {
      key: "namespace"
      value: ": Qwen35CausalLMModel/model: Qwen35TextModel/layers.0: Qwen35DecoderLayer/linear_attn: GatedDeltaNet"
    }
    metadata_props {
      key: "pkg.onnxscript.class_hierarchy"
      value: "[\'Qwen35CausalLMModel\', \'Qwen35TextModel\', \'Qwen35DecoderLayer\', \'GatedDeltaNet\']"
    }
    metadata_props {
      key: "pkg.onnxscript.name_scopes"
      value: "[\'\', \'model\', \'layers.0\', \'linear_attn\']"
    }
    metadata_props {
      key: "pkg.onnxscript.shape_inference_error"
      value: "Type of input 0 value v_model.layers.0.linear_attn.Sqrt_74 of node model/layers.0/linear_attn/Reciprocal_node_75 not known"
    }
  }
  node {
    input: "v_model.layers.0.linear_attn.Reshape_62"
    input: "v_model.layers.0.linear_attn.Reciprocal_75"
    output: "v_model.layers.0.linear_attn.Mul_76"
    name: "model/layers.0/linear_attn/Mul_node_76"
    op_type: "Mul"
    metadata_props {
      key: "namespace"
      value: ": Qwen35CausalLMModel/model: Qwen35TextModel/layers.0: Qwen35DecoderLayer/linear_attn: GatedDeltaNet"
    }
    metadata_props {
      key: "pkg.onnxscript.class_hierarchy"
      value: "[\'Qwen35CausalLMModel\', \'Qwen35TextModel\', \'Qwen35DecoderLayer\', \'GatedDeltaNet\']"
    }
    metadata_props {
      key: "pkg.onnxscript.name_scopes"
      value: "[\'\', \'model\', \'layers.0\', \'linear_attn\']"
    }
    metadata_props {
      key: "pkg.onnxscript.shape_inference_error"
      value: "Type of input 0 value v_model.layers.0.linear_attn.Reshape_62 of node model/layers.0/linear_attn/Mul_node_76 not known"
    }
  }
  node {
    input: "v_model.layers.0.linear_attn.Reshape_63"
    input: "v_model.layers.0.linear_attn.Reshape_63"
    output: "v_model.layers.0.linear_attn.Mul_77"
    name: "model/layers.0/linear_attn/Mul_node_77"
    op_type: "Mul"
    metadata_props {
      key: "namespace"
      value: ": Qwen35CausalLMModel/model: Qwen35TextModel/layers.0: Qwen35DecoderLayer/linear_attn: GatedDeltaNet"
    }
    metadata_props {
      key: "pkg.onnxscript.class_hierarchy"
      value: "[\'Qwen35CausalLMModel\', \'Qwen35TextModel\', \'Qwen35DecoderLayer\', \'GatedDeltaNet\']"
    }
    metadata_props {
      key: "pkg.onnxscript.name_scopes"
      value: "[\'\', \'model\', \'layers.0\', \'linear_attn\']"
    }
    metadata_props {
      key: "pkg.onnxscript.shape_inference_error"
      value: "Type of input 0 value v_model.layers.0.linear_attn.Reshape_63 of node model/layers.0/linear_attn/Mul_node_77 not known"
    }
  }
  node {
    input: "v_model.layers.0.linear_attn.Mul_77"
    input: "const_1d_10"
    output: "v_model.layers.0.linear_attn.ReduceSum_78"
    name: "model/layers.0/linear_attn/ReduceSum_node_78"
    op_type: "ReduceSum"
    attribute {
      name: "keepdims"
      i: 1
      type: INT
    }
    metadata_props {
      key: "namespace"
      value: ": Qwen35CausalLMModel/model: Qwen35TextModel/layers.0: Qwen35DecoderLayer/linear_attn: GatedDeltaNet"
    }
    metadata_props {
      key: "pkg.onnxscript.class_hierarchy"
      value: "[\'Qwen35CausalLMModel\', \'Qwen35TextModel\', \'Qwen35DecoderLayer\', \'GatedDeltaNet\']"
    }
    metadata_props {
      key: "pkg.onnxscript.name_scopes"
      value: "[\'\', \'model\', \'layers.0\', \'linear_attn\']"
    }
    metadata_props {
      key: "pkg.onnxscript.shape_inference_error"
      value: "Type of input 0 value v_model.layers.0.linear_attn.Mul_77 of node model/layers.0/linear_attn/ReduceSum_node_78 not known"
    }
  }
  node {
    input: "v_model.layers.0.linear_attn.Constant_71"
    input: "v_model.layers.0.linear_attn.Reshape_63"
    output: "v_model.layers.0.linear_attn.CastLike_80"
    name: "model/layers.0/linear_attn/CastLike_node_80"
    op_type: "CastLike"
    metadata_props {
      key: "namespace"
      value: ": Qwen35CausalLMModel/model: Qwen35TextModel/layers.0: Qwen35DecoderLayer/linear_attn: GatedDeltaNet"
    }
    metadata_props {
      key: "pkg.onnxscript.class_hierarchy"
      value: "[\'Qwen35CausalLMModel\', \'Qwen35TextModel\', \'Qwen35DecoderLayer\', \'GatedDeltaNet\']"
    }
    metadata_props {
      key: "pkg.onnxscript.name_scopes"
      value: "[\'\', \'model\', \'layers.0\', \'linear_attn\']"
    }
    metadata_props {
      key: "pkg.onnxscript.shape_inference_error"
      value: "Type of input 1 value v_model.layers.0.linear_attn.Reshape_63 of node model/layers.0/linear_attn/CastLike_node_80 not known"
    }
  }
  node {
    input: "v_model.layers.0.linear_attn.ReduceSum_78"
    input: "v_model.layers.0.linear_attn.CastLike_80"
    output: "v_model.layers.0.linear_attn.Add_81"
    name: "model/layers.0/linear_attn/Add_node_81"
    op_type: "Add"
    metadata_props {
      key: "namespace"
      value: ": Qwen35CausalLMModel/model: Qwen35TextModel/layers.0: Qwen35DecoderLayer/linear_attn: GatedDeltaNet"
    }
    metadata_props {
      key: "pkg.onnxscript.class_hierarchy"
      value: "[\'Qwen35CausalLMModel\', \'Qwen35TextModel\', \'Qwen35DecoderLayer\', \'GatedDeltaNet\']"
    }
    metadata_props {
      key: "pkg.onnxscript.name_scopes"
      value: "[\'\', \'model\', \'layers.0\', \'linear_attn\']"
    }
    metadata_props {
      key: "pkg.onnxscript.shape_inference_error"
      value: "Type of input 0 value v_model.layers.0.linear_attn.ReduceSum_78 of node model/layers.0/linear_attn/Add_node_81 not known"
    }
  }
  node {
    input: "v_model.layers.0.linear_attn.Add_81"
    output: "v_model.layers.0.linear_attn.Sqrt_82"
    name: "model/layers.0/linear_attn/Sqrt_node_82"
    op_type: "Sqrt"
    metadata_props {
      key: "namespace"
      value: ": Qwen35CausalLMModel/model: Qwen35TextModel/layers.0: Qwen35DecoderLayer/linear_attn: GatedDeltaNet"
    }
    metadata_props {
      key: "pkg.onnxscript.class_hierarchy"
      value: "[\'Qwen35CausalLMModel\', \'Qwen35TextModel\', \'Qwen35DecoderLayer\', \'GatedDeltaNet\']"
    }
    metadata_props {
      key: "pkg.onnxscript.name_scopes"
      value: "[\'\', \'model\', \'layers.0\', \'linear_attn\']"
    }
    metadata_props {
      key: "pkg.onnxscript.shape_inference_error"
      value: "Type of input 0 value v_model.layers.0.linear_attn.Add_81 of node model/layers.0/linear_attn/Sqrt_node_82 not known"
    }
  }
  node {
    input: "v_model.layers.0.linear_attn.Sqrt_82"
    output: "v_model.layers.0.linear_attn.Reciprocal_83"
    name: "model/layers.0/linear_attn/Reciprocal_node_83"
    op_type: "Reciprocal"
    metadata_props {
      key: "namespace"
      value: ": Qwen35CausalLMModel/model: Qwen35TextModel/layers.0: Qwen35DecoderLayer/linear_attn: GatedDeltaNet"
    }
    metadata_props {
      key: "pkg.onnxscript.class_hierarchy"
      value: "[\'Qwen35CausalLMModel\', \'Qwen35TextModel\', \'Qwen35DecoderLayer\', \'GatedDeltaNet\']"
    }
    metadata_props {
      key: "pkg.onnxscript.name_scopes"
      value: "[\'\', \'model\', \'layers.0\', \'linear_attn\']"
    }
    metadata_props {
      key: "pkg.onnxscript.shape_inference_error"
      value: "Type of input 0 value v_model.layers.0.linear_attn.Sqrt_82 of node model/layers.0/linear_attn/Reciprocal_node_83 not known"
    }
  }
  node {
    input: "v_model.layers.0.linear_attn.Reshape_63"
    input: "v_model.layers.0.linear_attn.Reciprocal_83"
    output: "v_model.layers.0.linear_attn.Mul_84"
    name: "model/layers.0/linear_attn/Mul_node_84"
    op_type: "Mul"
    metadata_props {
      key: "namespace"
      value: ": Qwen35CausalLMModel/model: Qwen35TextModel/layers.0: Qwen35DecoderLayer/linear_attn: GatedDeltaNet"
    }
    metadata_props {
      key: "pkg.onnxscript.class_hierarchy"
      value: "[\'Qwen35CausalLMModel\', \'Qwen35TextModel\', \'Qwen35DecoderLayer\', \'GatedDeltaNet\']"
    }
    metadata_props {
      key: "pkg.onnxscript.name_scopes"
      value: "[\'\', \'model\', \'layers.0\', \'linear_attn\']"
    }
    metadata_props {
      key: "pkg.onnxscript.shape_inference_error"
      value: "Type of input 0 value v_model.layers.0.linear_attn.Reshape_63 of node model/layers.0/linear_attn/Mul_node_84 not known"
    }
  }
  node {
    output: "v_model.layers.0.linear_attn.Constant_85"
    name: "model/layers.0/linear_attn/Constant_node_85"
    op_type: "Constant"
    attribute {
      name: "value_float"
      f: 0.088388346
      type: FLOAT
    }
    metadata_props {
      key: "namespace"
      value: ": Qwen35CausalLMModel/model: Qwen35TextModel/layers.0: Qwen35DecoderLayer/linear_attn: GatedDeltaNet"
    }
    metadata_props {
      key: "pkg.onnxscript.class_hierarchy"
      value: "[\'Qwen35CausalLMModel\', \'Qwen35TextModel\', \'Qwen35DecoderLayer\', \'GatedDeltaNet\']"
    }
    metadata_props {
      key: "pkg.onnxscript.name_scopes"
      value: "[\'\', \'model\', \'layers.0\', \'linear_attn\']"
    }
  }
  node {
    input: "v_model.layers.0.linear_attn.Constant_85"
    input: "v_model.layers.0.linear_attn.Mul_76"
    output: "v_model.layers.0.linear_attn.CastLike_86"
    name: "model/layers.0/linear_attn/CastLike_node_86"
    op_type: "CastLike"
    metadata_props {
      key: "namespace"
      value: ": Qwen35CausalLMModel/model: Qwen35TextModel/layers.0: Qwen35DecoderLayer/linear_attn: GatedDeltaNet"
    }
    metadata_props {
      key: "pkg.onnxscript.class_hierarchy"
      value: "[\'Qwen35CausalLMModel\', \'Qwen35TextModel\', \'Qwen35DecoderLayer\', \'GatedDeltaNet\']"
    }
    metadata_props {
      key: "pkg.onnxscript.name_scopes"
      value: "[\'\', \'model\', \'layers.0\', \'linear_attn\']"
    }
    metadata_props {
      key: "pkg.onnxscript.shape_inference_error"
      value: "Type of input 1 value v_model.layers.0.linear_attn.Mul_76 of node model/layers.0/linear_attn/CastLike_node_86 not known"
    }
  }
  node {
    input: "v_model.layers.0.linear_attn.Mul_76"
    input: "v_model.layers.0.linear_attn.CastLike_86"
    output: "v_model.layers.0.linear_attn.Mul_87"
    name: "model/layers.0/linear_attn/Mul_node_87"
    op_type: "Mul"
    metadata_props {
      key: "namespace"
      value: ": Qwen35CausalLMModel/model: Qwen35TextModel/layers.0: Qwen35DecoderLayer/linear_attn: GatedDeltaNet"
    }
    metadata_props {
      key: "pkg.onnxscript.class_hierarchy"
      value: "[\'Qwen35CausalLMModel\', \'Qwen35TextModel\', \'Qwen35DecoderLayer\', \'GatedDeltaNet\']"
    }
    metadata_props {
      key: "pkg.onnxscript.name_scopes"
      value: "[\'\', \'model\', \'layers.0\', \'linear_attn\']"
    }
    metadata_props {
      key: "pkg.onnxscript.shape_inference_error"
      value: "Type of input 0 value v_model.layers.0.linear_attn.Mul_76 of node model/layers.0/linear_attn/Mul_node_87 not known"
    }
  }
  node {
    input: "v_model.layers.0.linear_attn.in_proj_b.MatMul_46"
    output: "v_model.layers.0.linear_attn.Sigmoid_88"
    name: "model/layers.0/linear_attn/Sigmoid_node_88"
    op_type: "Sigmoid"
    metadata_props {
      key: "namespace"
      value: ": Qwen35CausalLMModel/model: Qwen35TextModel/layers.0: Qwen35DecoderLayer/linear_attn: GatedDeltaNet"
    }
    metadata_props {
      key: "pkg.onnxscript.class_hierarchy"
      value: "[\'Qwen35CausalLMModel\', \'Qwen35TextModel\', \'Qwen35DecoderLayer\', \'GatedDeltaNet\']"
    }
    metadata_props {
      key: "pkg.onnxscript.name_scopes"
      value: "[\'\', \'model\', \'layers.0\', \'linear_attn\']"
    }
  }
  node {
    input: "v_model.layers.0.linear_attn.in_proj_a.MatMul_48"
    output: "v_model.layers.0.linear_attn.Cast_89"
    name: "model/layers.0/linear_attn/Cast_node_89"
    op_type: "Cast"
    attribute {
      name: "to"
      i: 1
      type: INT
    }
    metadata_props {
      key: "namespace"
      value: ": Qwen35CausalLMModel/model: Qwen35TextModel/layers.0: Qwen35DecoderLayer/linear_attn: GatedDeltaNet"
    }
    metadata_props {
      key: "pkg.onnxscript.class_hierarchy"
      value: "[\'Qwen35CausalLMModel\', \'Qwen35TextModel\', \'Qwen35DecoderLayer\', \'GatedDeltaNet\']"
    }
    metadata_props {
      key: "pkg.onnxscript.name_scopes"
      value: "[\'\', \'model\', \'layers.0\', \'linear_attn\']"
    }
  }
  node {
    input: "model.layers.0.linear_attn.dt_bias"
    output: "v_model.layers.0.linear_attn.Cast_90"
    name: "model/layers.0/linear_attn/Cast_node_90"
    op_type: "Cast"
    attribute {
      name: "to"
      i: 1
      type: INT
    }
    metadata_props {
      key: "namespace"
      value: ": Qwen35CausalLMModel/model: Qwen35TextModel/layers.0: Qwen35DecoderLayer/linear_attn: GatedDeltaNet"
    }
    metadata_props {
      key: "pkg.onnxscript.class_hierarchy"
      value: "[\'Qwen35CausalLMModel\', \'Qwen35TextModel\', \'Qwen35DecoderLayer\', \'GatedDeltaNet\']"
    }
    metadata_props {
      key: "pkg.onnxscript.name_scopes"
      value: "[\'\', \'model\', \'layers.0\', \'linear_attn\']"
    }
  }
  node {
    input: "model.layers.0.linear_attn.A_log"
    output: "v_model.layers.0.linear_attn.Cast_91"
    name: "model/layers.0/linear_attn/Cast_node_91"
    op_type: "Cast"
    attribute {
      name: "to"
      i: 1
      type: INT
    }
    metadata_props {
      key: "namespace"
      value: ": Qwen35CausalLMModel/model: Qwen35TextModel/layers.0: Qwen35DecoderLayer/linear_attn: GatedDeltaNet"
    }
    metadata_props {
      key: "pkg.onnxscript.class_hierarchy"
      value: "[\'Qwen35CausalLMModel\', \'Qwen35TextModel\', \'Qwen35DecoderLayer\', \'GatedDeltaNet\']"
    }
    metadata_props {
      key: "pkg.onnxscript.name_scopes"
      value: "[\'\', \'model\', \'layers.0\', \'linear_attn\']"
    }
  }
  node {
    input: "v_model.layers.0.linear_attn.Cast_89"
    input: "v_model.layers.0.linear_attn.Cast_90"
    output: "v_model.layers.0.linear_attn.Add_92"
    name: "model/layers.0/linear_attn/Add_node_92"
    op_type: "Add"
    metadata_props {
      key: "namespace"
      value: ": Qwen35CausalLMModel/model: Qwen35TextModel/layers.0: Qwen35DecoderLayer/linear_attn: GatedDeltaNet"
    }
    metadata_props {
      key: "pkg.onnxscript.class_hierarchy"
      value: "[\'Qwen35CausalLMModel\', \'Qwen35TextModel\', \'Qwen35DecoderLayer\', \'GatedDeltaNet\']"
    }
    metadata_props {
      key: "pkg.onnxscript.name_scopes"
      value: "[\'\', \'model\', \'layers.0\', \'linear_attn\']"
    }
  }
  node {
    input: "v_model.layers.0.linear_attn.Add_92"
    output: "v_model.layers.0.linear_attn.Softplus_93"
    name: "model/layers.0/linear_attn/Softplus_node_93"
    op_type: "Softplus"
    metadata_props {
      key: "namespace"
      value: ": Qwen35CausalLMModel/model: Qwen35TextModel/layers.0: Qwen35DecoderLayer/linear_attn: GatedDeltaNet"
    }
    metadata_props {
      key: "pkg.onnxscript.class_hierarchy"
      value: "[\'Qwen35CausalLMModel\', \'Qwen35TextModel\', \'Qwen35DecoderLayer\', \'GatedDeltaNet\']"
    }
    metadata_props {
      key: "pkg.onnxscript.name_scopes"
      value: "[\'\', \'model\', \'layers.0\', \'linear_attn\']"
    }
  }
  node {
    input: "v_model.layers.0.linear_attn.Cast_91"
    output: "v_model.layers.0.linear_attn.Exp_94"
    name: "model/layers.0/linear_attn/Exp_node_94"
    op_type: "Exp"
    metadata_props {
      key: "namespace"
      value: ": Qwen35CausalLMModel/model: Qwen35TextModel/layers.0: Qwen35DecoderLayer/linear_attn: GatedDeltaNet"
    }
    metadata_props {
      key: "pkg.onnxscript.class_hierarchy"
      value: "[\'Qwen35CausalLMModel\', \'Qwen35TextModel\', \'Qwen35DecoderLayer\', \'GatedDeltaNet\']"
    }
    metadata_props {
      key: "pkg.onnxscript.name_scopes"
      value: "[\'\', \'model\', \'layers.0\', \'linear_attn\']"
    }
  }
  node {
    input: "v_model.layers.0.linear_attn.Exp_94"
    output: "v_model.layers.0.linear_attn.Neg_95"
    name: "model/layers.0/linear_attn/Neg_node_95"
    op_type: "Neg"
    metadata_props {
      key: "namespace"
      value: ": Qwen35CausalLMModel/model: Qwen35TextModel/layers.0: Qwen35DecoderLayer/linear_attn: GatedDeltaNet"
    }
    metadata_props {
      key: "pkg.onnxscript.class_hierarchy"
      value: "[\'Qwen35CausalLMModel\', \'Qwen35TextModel\', \'Qwen35DecoderLayer\', \'GatedDeltaNet\']"
    }
    metadata_props {
      key: "pkg.onnxscript.name_scopes"
      value: "[\'\', \'model\', \'layers.0\', \'linear_attn\']"
    }
  }
  node {
    input: "v_model.layers.0.linear_attn.Neg_95"
    input: "v_model.layers.0.linear_attn.Softplus_93"
    output: "v_model.layers.0.linear_attn.Mul_96"
    name: "model/layers.0/linear_attn/Mul_node_96"
    op_type: "Mul"
    metadata_props {
      key: "namespace"
      value: ": Qwen35CausalLMModel/model: Qwen35TextModel/layers.0: Qwen35DecoderLayer/linear_attn: GatedDeltaNet"
    }
    metadata_props {
      key: "pkg.onnxscript.class_hierarchy"
      value: "[\'Qwen35CausalLMModel\', \'Qwen35TextModel\', \'Qwen35DecoderLayer\', \'GatedDeltaNet\']"
    }
    metadata_props {
      key: "pkg.onnxscript.name_scopes"
      value: "[\'\', \'model\', \'layers.0\', \'linear_attn\']"
    }
  }
  node {
    input: "v_model.layers.0.linear_attn.Mul_87"
    output: "v_model.layers.0.linear_attn.Transpose_97"
    name: "model/layers.0/linear_attn/Transpose_node_97"
    op_type: "Transpose"
    attribute {
      name: "perm"
      ints: 0
      ints: 2
      ints: 1
      ints: 3
      type: INTS
    }
    metadata_props {
      key: "namespace"
      value: ": Qwen35CausalLMModel/model: Qwen35TextModel/layers.0: Qwen35DecoderLayer/linear_attn: GatedDeltaNet"
    }
    metadata_props {
      key: "pkg.onnxscript.class_hierarchy"
      value: "[\'Qwen35CausalLMModel\', \'Qwen35TextModel\', \'Qwen35DecoderLayer\', \'GatedDeltaNet\']"
    }
    metadata_props {
      key: "pkg.onnxscript.name_scopes"
      value: "[\'\', \'model\', \'layers.0\', \'linear_attn\']"
    }
    metadata_props {
      key: "pkg.onnxscript.shape_inference_error"
      value: "Type of input 0 value v_model.layers.0.linear_attn.Mul_87 of node model/layers.0/linear_attn/Transpose_node_97 not known"
    }
  }
  node {
    input: "v_model.layers.0.linear_attn.Mul_84"
    output: "v_model.layers.0.linear_attn.Transpose_98"
    name: "model/layers.0/linear_attn/Transpose_node_98"
    op_type: "Transpose"
    attribute {
      name: "perm"
      ints: 0
      ints: 2
      ints: 1
      ints: 3
      type: INTS
    }
    metadata_props {
      key: "namespace"
      value: ": Qwen35CausalLMModel/model: Qwen35TextModel/layers.0: Qwen35DecoderLayer/linear_attn: GatedDeltaNet"
    }
    metadata_props {
      key: "pkg.onnxscript.class_hierarchy"
      value: "[\'Qwen35CausalLMModel\', \'Qwen35TextModel\', \'Qwen35DecoderLayer\', \'GatedDeltaNet\']"
    }
    metadata_props {
      key: "pkg.onnxscript.name_scopes"
      value: "[\'\', \'model\', \'layers.0\', \'linear_attn\']"
    }
    metadata_props {
      key: "pkg.onnxscript.shape_inference_error"
      value: "Type of input 0 value v_model.layers.0.linear_attn.Mul_84 of node model/layers.0/linear_attn/Transpose_node_98 not known"
    }
  }
  node {
    input: "v_model.layers.0.linear_attn.Reshape_67"
    output: "v_model.layers.0.linear_attn.Transpose_99"
    name: "model/layers.0/linear_attn/Transpose_node_99"
    op_type: "Transpose"
    attribute {
      name: "perm"
      ints: 0
      ints: 2
      ints: 1
      ints: 3
      type: INTS
    }
    metadata_props {
      key: "namespace"
      value: ": Qwen35CausalLMModel/model: Qwen35TextModel/layers.0: Qwen35DecoderLayer/linear_attn: GatedDeltaNet"
    }
    metadata_props {
      key: "pkg.onnxscript.class_hierarchy"
      value: "[\'Qwen35CausalLMModel\', \'Qwen35TextModel\', \'Qwen35DecoderLayer\', \'GatedDeltaNet\']"
    }
    metadata_props {
      key: "pkg.onnxscript.name_scopes"
      value: "[\'\', \'model\', \'layers.0\', \'linear_attn\']"
    }
    metadata_props {
      key: "pkg.onnxscript.shape_inference_error"
      value: "Type of input 0 value v_model.layers.0.linear_attn.Reshape_67 of node model/layers.0/linear_attn/Transpose_node_99 not known"
    }
  }
  node {
    input: "v_model.layers.0.linear_attn.Sigmoid_88"
    output: "v_model.layers.0.linear_attn.Transpose_100"
    name: "model/layers.0/linear_attn/Transpose_node_100"
    op_type: "Transpose"
    attribute {
      name: "perm"
      ints: 0
      ints: 2
      ints: 1
      type: INTS
    }
    metadata_props {
      key: "namespace"
      value: ": Qwen35CausalLMModel/model: Qwen35TextModel/layers.0: Qwen35DecoderLayer/linear_attn: GatedDeltaNet"
    }
    metadata_props {
      key: "pkg.onnxscript.class_hierarchy"
      value: "[\'Qwen35CausalLMModel\', \'Qwen35TextModel\', \'Qwen35DecoderLayer\', \'GatedDeltaNet\']"
    }
    metadata_props {
      key: "pkg.onnxscript.name_scopes"
      value: "[\'\', \'model\', \'layers.0\', \'linear_attn\']"
    }
  }
  node {
    input: "v_model.layers.0.linear_attn.Mul_96"
    output: "v_model.layers.0.linear_attn.Transpose_101"
    name: "model/layers.0/linear_attn/Transpose_node_101"
    op_type: "Transpose"
    attribute {
      name: "perm"
      ints: 0
      ints: 2
      ints: 1
      type: INTS
    }
    metadata_props {
      key: "namespace"
      value: ": Qwen35CausalLMModel/model: Qwen35TextModel/layers.0: Qwen35DecoderLayer/linear_attn: GatedDeltaNet"
    }
    metadata_props {
      key: "pkg.onnxscript.class_hierarchy"
      value: "[\'Qwen35CausalLMModel\', \'Qwen35TextModel\', \'Qwen35DecoderLayer\', \'GatedDeltaNet\']"
    }
    metadata_props {
      key: "pkg.onnxscript.name_scopes"
      value: "[\'\', \'model\', \'layers.0\', \'linear_attn\']"
    }
  }
  node {
    input: "v_model.layers.0.linear_attn.Transpose_97"
    input: "v_model.layers.0.linear_attn.Transpose_98"
    input: "v_model.layers.0.linear_attn.Transpose_99"
    input: "past_key_values.0.recurrent_state"
    input: "v_model.layers.0.linear_attn.Transpose_101"
    input: "v_model.layers.0.linear_attn.Transpose_100"
    output: "v_model.layers.0.linear_attn.LinearAttention_102_0"
    output: "present.0.recurrent_state"
    name: "model/layers.0/linear_attn/LinearAttention_node_102"
    op_type: "LinearAttention"
    attribute {
      name: "update_rule"
      s: "gated_delta"
      type: STRING
    }
    domain: "com.microsoft"
    metadata_props {
      key: "namespace"
      value: ": Qwen35CausalLMModel/model: Qwen35TextModel/layers.0: Qwen35DecoderLayer/linear_attn: GatedDeltaNet"
    }
    metadata_props {
      key: "pkg.onnxscript.class_hierarchy"
      value: "[\'Qwen35CausalLMModel\', \'Qwen35TextModel\', \'Qwen35DecoderLayer\', \'GatedDeltaNet\']"
    }
    metadata_props {
      key: "pkg.onnxscript.name_scopes"
      value: "[\'\', \'model\', \'layers.0\', \'linear_attn\']"
    }
    metadata_props {
      key: "pkg.onnxscript.shape_inference_error"
      value: "Type of input 0 value v_model.layers.0.linear_attn.Transpose_97 of node model/layers.0/linear_attn/LinearAttention_node_102 not known"
    }
  }
  node {
    input: "v_model.layers.0.linear_attn.LinearAttention_102_0"
    output: "v_model.layers.0.linear_attn.Transpose_103"
    name: "model/layers.0/linear_attn/Transpose_node_103"
    op_type: "Transpose"
    attribute {
      name: "perm"
      ints: 0
      ints: 2
      ints: 1
      ints: 3
      type: INTS
    }
    metadata_props {
      key: "namespace"
      value: ": Qwen35CausalLMModel/model: Qwen35TextModel/layers.0: Qwen35DecoderLayer/linear_attn: GatedDeltaNet"
    }
    metadata_props {
      key: "pkg.onnxscript.class_hierarchy"
      value: "[\'Qwen35CausalLMModel\', \'Qwen35TextModel\', \'Qwen35DecoderLayer\', \'GatedDeltaNet\']"
    }
    metadata_props {
      key: "pkg.onnxscript.name_scopes"
      value: "[\'\', \'model\', \'layers.0\', \'linear_attn\']"
    }
    metadata_props {
      key: "pkg.onnxscript.shape_inference_error"
      value: "Type of input 0 value v_model.layers.0.linear_attn.LinearAttention_102_0 of node model/layers.0/linear_attn/Transpose_node_103 not known"
    }
  }
  node {
    output: "v_model.layers.0.linear_attn.Constant_104"
    name: "model/layers.0/linear_attn/Constant_node_104"
    op_type: "Constant"
    attribute {
      name: "value_ints"
      ints: -1
      ints: 128
      type: INTS
    }
    metadata_props {
      key: "namespace"
      value: ": Qwen35CausalLMModel/model: Qwen35TextModel/layers.0: Qwen35DecoderLayer/linear_attn: GatedDeltaNet"
    }
    metadata_props {
      key: "pkg.onnxscript.class_hierarchy"
      value: "[\'Qwen35CausalLMModel\', \'Qwen35TextModel\', \'Qwen35DecoderLayer\', \'GatedDeltaNet\']"
    }
    metadata_props {
      key: "pkg.onnxscript.name_scopes"
      value: "[\'\', \'model\', \'layers.0\', \'linear_attn\']"
    }
  }
  node {
    input: "v_model.layers.0.linear_attn.Transpose_103"
    input: "v_model.layers.0.linear_attn.Constant_104"
    output: "v_model.layers.0.linear_attn.Reshape_105"
    name: "model/layers.0/linear_attn/Reshape_node_105"
    op_type: "Reshape"
    metadata_props {
      key: "namespace"
      value: ": Qwen35CausalLMModel/model: Qwen35TextModel/layers.0: Qwen35DecoderLayer/linear_attn: GatedDeltaNet"
    }
    metadata_props {
      key: "pkg.onnxscript.class_hierarchy"
      value: "[\'Qwen35CausalLMModel\', \'Qwen35TextModel\', \'Qwen35DecoderLayer\', \'GatedDeltaNet\']"
    }
    metadata_props {
      key: "pkg.onnxscript.name_scopes"
      value: "[\'\', \'model\', \'layers.0\', \'linear_attn\']"
    }
    metadata_props {
      key: "pkg.onnxscript.shape_inference_error"
      value: "Type of input 0 value v_model.layers.0.linear_attn.Transpose_103 of node model/layers.0/linear_attn/Reshape_node_105 not known"
    }
  }
  node {
    input: "v_model.layers.0.linear_attn.Reshape_68"
    input: "v_model.layers.0.linear_attn.Constant_104"
    output: "v_model.layers.0.linear_attn.Reshape_106"
    name: "model/layers.0/linear_attn/Reshape_node_106"
    op_type: "Reshape"
    metadata_props {
      key: "namespace"
      value: ": Qwen35CausalLMModel/model: Qwen35TextModel/layers.0: Qwen35DecoderLayer/linear_attn: GatedDeltaNet"
    }
    metadata_props {
      key: "pkg.onnxscript.class_hierarchy"
      value: "[\'Qwen35CausalLMModel\', \'Qwen35TextModel\', \'Qwen35DecoderLayer\', \'GatedDeltaNet\']"
    }
    metadata_props {
      key: "pkg.onnxscript.name_scopes"
      value: "[\'\', \'model\', \'layers.0\', \'linear_attn\']"
    }
  }
  node {
    input: "v_model.layers.0.linear_attn.Reshape_105"
    input: "model.layers.0.linear_attn.norm.weight"
    output: "v_model.layers.0.linear_attn.norm.RMSNormalization_107"
    name: "model/layers.0/linear_attn/norm/RMSNormalization_node_107"
    op_type: "RMSNormalization"
    attribute {
      name: "epsilon"
      f: 1e-06
      type: FLOAT
    }
    attribute {
      name: "axis"
      i: -1
      type: INT
    }
    metadata_props {
      key: "namespace"
      value: ": Qwen35CausalLMModel/model: Qwen35TextModel/layers.0: Qwen35DecoderLayer/linear_attn: GatedDeltaNet/norm: PostGatedRMSNorm"
    }
    metadata_props {
      key: "pkg.onnxscript.class_hierarchy"
      value: "[\'Qwen35CausalLMModel\', \'Qwen35TextModel\', \'Qwen35DecoderLayer\', \'GatedDeltaNet\', \'PostGatedRMSNorm\']"
    }
    metadata_props {
      key: "pkg.onnxscript.name_scopes"
      value: "[\'\', \'model\', \'layers.0\', \'linear_attn\', \'norm\']"
    }
    metadata_props {
      key: "pkg.onnxscript.shape_inference_error"
      value: "Type of input 0 value v_model.layers.0.linear_attn.Reshape_105 of node model/layers.0/linear_attn/norm/RMSNormalization_node_107 not known"
    }
  }
  node {
    input: "v_model.layers.0.linear_attn.Reshape_106"
    output: "v_model.layers.0.linear_attn.norm.Sigmoid_108"
    name: "model/layers.0/linear_attn/norm/Sigmoid_node_108"
    op_type: "Sigmoid"
    metadata_props {
      key: "namespace"
      value: ": Qwen35CausalLMModel/model: Qwen35TextModel/layers.0: Qwen35DecoderLayer/linear_attn: GatedDeltaNet/norm: PostGatedRMSNorm"
    }
    metadata_props {
      key: "pkg.onnxscript.class_hierarchy"
      value: "[\'Qwen35CausalLMModel\', \'Qwen35TextModel\', \'Qwen35DecoderLayer\', \'GatedDeltaNet\', \'PostGatedRMSNorm\']"
    }
    metadata_props {
      key: "pkg.onnxscript.name_scopes"
      value: "[\'\', \'model\', \'layers.0\', \'linear_attn\', \'norm\']"
    }
  }
  node {
    input: "v_model.layers.0.linear_attn.Reshape_106"
    input: "v_model.layers.0.linear_attn.norm.Sigmoid_108"
    output: "v_model.layers.0.linear_attn.norm.Mul_109"
    name: "model/layers.0/linear_attn/norm/Mul_node_109"
    op_type: "Mul"
    metadata_props {
      key: "namespace"
      value: ": Qwen35CausalLMModel/model: Qwen35TextModel/layers.0: Qwen35DecoderLayer/linear_attn: GatedDeltaNet/norm: PostGatedRMSNorm"
    }
    metadata_props {
      key: "pkg.onnxscript.class_hierarchy"
      value: "[\'Qwen35CausalLMModel\', \'Qwen35TextModel\', \'Qwen35DecoderLayer\', \'GatedDeltaNet\', \'PostGatedRMSNorm\']"
    }
    metadata_props {
      key: "pkg.onnxscript.name_scopes"
      value: "[\'\', \'model\', \'layers.0\', \'linear_attn\', \'norm\']"
    }
  }
  node {
    input: "v_model.layers.0.linear_attn.norm.RMSNormalization_107"
    input: "v_model.layers.0.linear_attn.norm.Mul_109"
    output: "v_model.layers.0.linear_attn.norm.Mul_110"
    name: "model/layers.0/linear_attn/norm/Mul_node_110"
    op_type: "Mul"
    metadata_props {
      key: "namespace"
      value: ": Qwen35CausalLMModel/model: Qwen35TextModel/layers.0: Qwen35DecoderLayer/linear_attn: GatedDeltaNet/norm: PostGatedRMSNorm"
    }
    metadata_props {
      key: "pkg.onnxscript.class_hierarchy"
      value: "[\'Qwen35CausalLMModel\', \'Qwen35TextModel\', \'Qwen35DecoderLayer\', \'GatedDeltaNet\', \'PostGatedRMSNorm\']"
    }
    metadata_props {
      key: "pkg.onnxscript.name_scopes"
      value: "[\'\', \'model\', \'layers.0\', \'linear_attn\', \'norm\']"
    }
    metadata_props {
      key: "pkg.onnxscript.shape_inference_error"
      value: "Type of input 0 value v_model.layers.0.linear_attn.norm.RMSNormalization_107 of node model/layers.0/linear_attn/norm/Mul_node_110 not known"
    }
  }
  node {
    output: "v_model.layers.0.linear_attn.Constant_111"
    name: "model/layers.0/linear_attn/Constant_node_111"
    op_type: "Constant"
    attribute {
      name: "value_ints"
      ints: 2048
      type: INTS
    }
    metadata_props {
      key: "namespace"
      value: ": Qwen35CausalLMModel/model: Qwen35TextModel/layers.0: Qwen35DecoderLayer/linear_attn: GatedDeltaNet"
    }
    metadata_props {
      key: "pkg.onnxscript.class_hierarchy"
      value: "[\'Qwen35CausalLMModel\', \'Qwen35TextModel\', \'Qwen35DecoderLayer\', \'GatedDeltaNet\']"
    }
    metadata_props {
      key: "pkg.onnxscript.name_scopes"
      value: "[\'\', \'model\', \'layers.0\', \'linear_attn\']"
    }
  }
  node {
    input: "v_model.layers.0.linear_attn.Shape_40"
    input: "v_model.layers.0.linear_attn.Shape_58"
    input: "v_model.layers.0.linear_attn.Constant_111"
    output: "v_model.layers.0.linear_attn.Concat_112"
    name: "model/layers.0/linear_attn/Concat_node_112"
    op_type: "Concat"
    attribute {
      name: "axis"
      i: 0
      type: INT
    }
    metadata_props {
      key: "namespace"
      value: ": Qwen35CausalLMModel/model: Qwen35TextModel/layers.0: Qwen35DecoderLayer/linear_attn: GatedDeltaNet"
    }
    metadata_props {
      key: "pkg.onnxscript.class_hierarchy"
      value: "[\'Qwen35CausalLMModel\', \'Qwen35TextModel\', \'Qwen35DecoderLayer\', \'GatedDeltaNet\']"
    }
    metadata_props {
      key: "pkg.onnxscript.name_scopes"
      value: "[\'\', \'model\', \'layers.0\', \'linear_attn\']"
    }
  }
  node {
    input: "v_model.layers.0.linear_attn.norm.Mul_110"
    input: "v_model.layers.0.linear_attn.Concat_112"
    output: "v_model.layers.0.linear_attn.Reshape_113"
    name: "model/layers.0/linear_attn/Reshape_node_113"
    op_type: "Reshape"
    metadata_props {
      key: "namespace"
      value: ": Qwen35CausalLMModel/model: Qwen35TextModel/layers.0: Qwen35DecoderLayer/linear_attn: GatedDeltaNet"
    }
    metadata_props {
      key: "pkg.onnxscript.class_hierarchy"
      value: "[\'Qwen35CausalLMModel\', \'Qwen35TextModel\', \'Qwen35DecoderLayer\', \'GatedDeltaNet\']"
    }
    metadata_props {
      key: "pkg.onnxscript.name_scopes"
      value: "[\'\', \'model\', \'layers.0\', \'linear_attn\']"
    }
    metadata_props {
      key: "pkg.onnxscript.shape_inference_error"
      value: "Type of input 0 value v_model.layers.0.linear_attn.norm.Mul_110 of node model/layers.0/linear_attn/Reshape_node_113 not known"
    }
  }
  node {
    input: "model.layers.0.linear_attn.out_proj.weight"
    output: "v_model.layers.0.linear_attn.out_proj.Transpose_114"
    name: "model/layers.0/linear_attn/out_proj/Transpose_node_114"
    op_type: "Transpose"
    attribute {
      name: "perm"
      ints: 1
      ints: 0
      type: INTS
    }
    metadata_props {
      key: "namespace"
      value: ": Qwen35CausalLMModel/model: Qwen35TextModel/layers.0: Qwen35DecoderLayer/linear_attn: GatedDeltaNet/out_proj: Linear"
    }
    metadata_props {
      key: "pkg.onnxscript.class_hierarchy"
      value: "[\'Qwen35CausalLMModel\', \'Qwen35TextModel\', \'Qwen35DecoderLayer\', \'GatedDeltaNet\', \'Linear\']"
    }
    metadata_props {
      key: "pkg.onnxscript.name_scopes"
      value: "[\'\', \'model\', \'layers.0\', \'linear_attn\', \'out_proj\']"
    }
  }
  node {
    input: "v_model.layers.0.linear_attn.Reshape_113"
    input: "v_model.layers.0.linear_attn.out_proj.Transpose_114"
    output: "v_model.layers.0.linear_attn.out_proj.MatMul_115"
    name: "model/layers.0/linear_attn/out_proj/MatMul_node_115"
    op_type: "MatMul"
    metadata_props {
      key: "namespace"
      value: ": Qwen35CausalLMModel/model: Qwen35TextModel/layers.0: Qwen35DecoderLayer/linear_attn: GatedDeltaNet/out_proj: Linear"
    }
    metadata_props {
      key: "pkg.onnxscript.class_hierarchy"
      value: "[\'Qwen35CausalLMModel\', \'Qwen35TextModel\', \'Qwen35DecoderLayer\', \'GatedDeltaNet\', \'Linear\']"
    }
    metadata_props {
      key: "pkg.onnxscript.name_scopes"
      value: "[\'\', \'model\', \'layers.0\', \'linear_attn\', \'out_proj\']"
    }
    metadata_props {
      key: "pkg.onnxscript.shape_inference_error"
      value: "Type of input 0 value v_model.layers.0.linear_attn.Reshape_113 of node model/layers.0/linear_attn/out_proj/MatMul_node_115 not known"
    }
  }
  node {
    input: "v_model.embed_tokens.Gather_0"
    input: "v_model.layers.0.linear_attn.out_proj.MatMul_115"
    output: "v_model.layers.0.Add_116"
    name: "model/layers.0/Add_node_116"
    op_type: "Add"
    metadata_props {
      key: "namespace"
      value: ": Qwen35CausalLMModel/model: Qwen35TextModel/layers.0: Qwen35DecoderLayer"
    }
    metadata_props {
      key: "pkg.onnxscript.class_hierarchy"
      value: "[\'Qwen35CausalLMModel\', \'Qwen35TextModel\', \'Qwen35DecoderLayer\']"
    }
    metadata_props {
      key: "pkg.onnxscript.name_scopes"
      value: "[\'\', \'model\', \'layers.0\']"
    }
    metadata_props {
      key: "pkg.onnxscript.shape_inference_error"
      value: "Type of input 1 value v_model.layers.0.linear_attn.out_proj.MatMul_115 of node model/layers.0/Add_node_116 not known"
    }
  }
  node {
    input: "model.layers.0.post_attention_layernorm.weight"
    input: "const_1.0_f16"
    output: "v_model.layers.0.post_attention_layernorm.Add_117"
    name: "model/layers.0/post_attention_layernorm/Add_node_117"
    op_type: "Add"
    metadata_props {
      key: "namespace"
      value: ": Qwen35CausalLMModel/model: Qwen35TextModel/layers.0: Qwen35DecoderLayer/post_attention_layernorm: OffsetRMSNorm"
    }
    metadata_props {
      key: "pkg.onnxscript.class_hierarchy"
      value: "[\'Qwen35CausalLMModel\', \'Qwen35TextModel\', \'Qwen35DecoderLayer\', \'OffsetRMSNorm\']"
    }
    metadata_props {
      key: "pkg.onnxscript.name_scopes"
      value: "[\'\', \'model\', \'layers.0\', \'post_attention_layernorm\']"
    }
  }
  node {
    input: "v_model.layers.0.Add_116"
    input: "v_model.layers.0.post_attention_layernorm.Add_117"
    output: "v_model.layers.0.post_attention_layernorm.RMSNormalization_118"
    name: "model/layers.0/post_attention_layernorm/RMSNormalization_node_118"
    op_type: "RMSNormalization"
    attribute {
      name: "epsilon"
      f: 1e-06
      type: FLOAT
    }
    attribute {
      name: "axis"
      i: -1
      type: INT
    }
    metadata_props {
      key: "namespace"
      value: ": Qwen35CausalLMModel/model: Qwen35TextModel/layers.0: Qwen35DecoderLayer/post_attention_layernorm: OffsetRMSNorm"
    }
    metadata_props {
      key: "pkg.onnxscript.class_hierarchy"
      value: "[\'Qwen35CausalLMModel\', \'Qwen35TextModel\', \'Qwen35DecoderLayer\', \'OffsetRMSNorm\']"
    }
    metadata_props {
      key: "pkg.onnxscript.name_scopes"
      value: "[\'\', \'model\', \'layers.0\', \'post_attention_layernorm\']"
    }
    metadata_props {
      key: "pkg.onnxscript.shape_inference_error"
      value: "Type of input 0 value v_model.layers.0.Add_116 of node model/layers.0/post_attention_layernorm/RMSNormalization_node_118 not known"
    }
  }
  node {
    input: "model.layers.0.mlp.gate_proj.weight"
    output: "v_model.layers.0.mlp.gate_proj.Transpose_119"
    name: "model/layers.0/mlp/gate_proj/Transpose_node_119"
    op_type: "Transpose"
    attribute {
      name: "perm"
      ints: 1
      ints: 0
      type: INTS
    }
    metadata_props {
      key: "namespace"
      value: ": Qwen35CausalLMModel/model: Qwen35TextModel/layers.0: Qwen35DecoderLayer/mlp: MLP/gate_proj: Linear"
    }
    metadata_props {
      key: "pkg.onnxscript.class_hierarchy"
      value: "[\'Qwen35CausalLMModel\', \'Qwen35TextModel\', \'Qwen35DecoderLayer\', \'MLP\', \'Linear\']"
    }
    metadata_props {
      key: "pkg.onnxscript.name_scopes"
      value: "[\'\', \'model\', \'layers.0\', \'mlp\', \'gate_proj\']"
    }
  }
  node {
    input: "v_model.layers.0.post_attention_layernorm.RMSNormalization_118"
    input: "v_model.layers.0.mlp.gate_proj.Transpose_119"
    output: "v_model.layers.0.mlp.gate_proj.MatMul_120"
    name: "model/layers.0/mlp/gate_proj/MatMul_node_120"
    op_type: "MatMul"
    metadata_props {
      key: "namespace"
      value: ": Qwen35CausalLMModel/model: Qwen35TextModel/layers.0: Qwen35DecoderLayer/mlp: MLP/gate_proj: Linear"
    }
    metadata_props {
      key: "pkg.onnxscript.class_hierarchy"
      value: "[\'Qwen35CausalLMModel\', \'Qwen35TextModel\', \'Qwen35DecoderLayer\', \'MLP\', \'Linear\']"
    }
    metadata_props {
      key: "pkg.onnxscript.name_scopes"
      value: "[\'\', \'model\', \'layers.0\', \'mlp\', \'gate_proj\']"
    }
    metadata_props {
      key: "pkg.onnxscript.shape_inference_error"
      value: "Type of input 0 value v_model.layers.0.post_attention_layernorm.RMSNormalization_118 of node model/layers.0/mlp/gate_proj/MatMul_node_120 not known"
    }
  }
  node {
    input: "v_model.layers.0.mlp.gate_proj.MatMul_120"
    output: "v_model.layers.0.mlp.Sigmoid_121"
    name: "model/layers.0/mlp/Sigmoid_node_121"
    op_type: "Sigmoid"
    metadata_props {
      key: "namespace"
      value: ": Qwen35CausalLMModel/model: Qwen35TextModel/layers.0: Qwen35DecoderLayer/mlp: MLP"
    }
    metadata_props {
      key: "pkg.onnxscript.class_hierarchy"
      value: "[\'Qwen35CausalLMModel\', \'Qwen35TextModel\', \'Qwen35DecoderLayer\', \'MLP\']"
    }
    metadata_props {
      key: "pkg.onnxscript.name_scopes"
      value: "[\'\', \'model\', \'layers.0\', \'mlp\']"
    }
    metadata_props {
      key: "pkg.onnxscript.shape_inference_error"
      value: "Type of input 0 value v_model.layers.0.mlp.gate_proj.MatMul_120 of node model/layers.0/mlp/Sigmoid_node_121 not known"
    }
  }
  node {
    input: "v_model.layers.0.mlp.gate_proj.MatMul_120"
    input: "v_model.layers.0.mlp.Sigmoid_121"
    output: "v_model.layers.0.mlp.Mul_122"
    name: "model/layers.0/mlp/Mul_node_122"
    op_type: "Mul"
    metadata_props {
      key: "namespace"
      value: ": Qwen35CausalLMModel/model: Qwen35TextModel/layers.0: Qwen35DecoderLayer/mlp: MLP"
    }
    metadata_props {
      key: "pkg.onnxscript.class_hierarchy"
      value: "[\'Qwen35CausalLMModel\', \'Qwen35TextModel\', \'Qwen35DecoderLayer\', \'MLP\']"
    }
    metadata_props {
      key: "pkg.onnxscript.name_scopes"
      value: "[\'\', \'model\', \'layers.0\', \'mlp\']"
    }
    metadata_props {
      key: "pkg.onnxscript.shape_inference_error"
      value: "Type of input 0 value v_model.layers.0.mlp.gate_proj.MatMul_120 of node model/layers.0/mlp/Mul_node_122 not known"
    }
  }
  node {
    input: "model.layers.0.mlp.up_proj.weight"
    output: "v_model.layers.0.mlp.up_proj.Transpose_123"
    name: "model/layers.0/mlp/up_proj/Transpose_node_123"
    op_type: "Transpose"
    attribute {
      name: "perm"
      ints: 1
      ints: 0
      type: INTS
    }
    metadata_props {
      key: "namespace"
      value: ": Qwen35CausalLMModel/model: Qwen35TextModel/layers.0: Qwen35DecoderLayer/mlp: MLP/up_proj: Linear"
    }
    metadata_props {
      key: "pkg.onnxscript.class_hierarchy"
      value: "[\'Qwen35CausalLMModel\', \'Qwen35TextModel\', \'Qwen35DecoderLayer\', \'MLP\', \'Linear\']"
    }
    metadata_props {
      key: "pkg.onnxscript.name_scopes"
      value: "[\'\', \'model\', \'layers.0\', \'mlp\', \'up_proj\']"
    }
  }
  node {
    input: "v_model.layers.0.post_attention_layernorm.RMSNormalization_118"
    input: "v_model.layers.0.mlp.up_proj.Transpose_123"
    output: "v_model.layers.0.mlp.up_proj.MatMul_124"
    name: "model/layers.0/mlp/up_proj/MatMul_node_124"
    op_type: "MatMul"
    metadata_props {
      key: "namespace"
      value: ": Qwen35CausalLMModel/model: Qwen35TextModel/layers.0: Qwen35DecoderLayer/mlp: MLP/up_proj: Linear"
    }
    metadata_props {
      key: "pkg.onnxscript.class_hierarchy"
      value: "[\'Qwen35CausalLMModel\', \'Qwen35TextModel\', \'Qwen35DecoderLayer\', \'MLP\', \'Linear\']"
    }
    metadata_props {
      key: "pkg.onnxscript.name_scopes"
      value: "[\'\', \'model\', \'layers.0\', \'mlp\', \'up_proj\']"
    }
    metadata_props {
      key: "pkg.onnxscript.shape_inference_error"
      value: "Type of input 0 value v_model.layers.0.post_attention_layernorm.RMSNormalization_118 of node model/layers.0/mlp/up_proj/MatMul_node_124 not known"
    }
  }
  node {
    input: "v_model.layers.0.mlp.Mul_122"
    input: "v_model.layers.0.mlp.up_proj.MatMul_124"
    output: "v_model.layers.0.mlp.Mul_125"
    name: "model/layers.0/mlp/Mul_node_125"
    op_type: "Mul"
    metadata_props {
      key: "namespace"
      value: ": Qwen35CausalLMModel/model: Qwen35TextModel/layers.0: Qwen35DecoderLayer/mlp: MLP"
    }
    metadata_props {
      key: "pkg.onnxscript.class_hierarchy"
      value: "[\'Qwen35CausalLMModel\', \'Qwen35TextModel\', \'Qwen35DecoderLayer\', \'MLP\']"
    }
    metadata_props {
      key: "pkg.onnxscript.name_scopes"
      value: "[\'\', \'model\', \'layers.0\', \'mlp\']"
    }
    metadata_props {
      key: "pkg.onnxscript.shape_inference_error"
      value: "Type of input 0 value v_model.layers.0.mlp.Mul_122 of node model/layers.0/mlp/Mul_node_125 not known"
    }
  }
  node {
    input: "model.layers.0.mlp.down_proj.weight"
    output: "v_model.layers.0.mlp.down_proj.Transpose_126"
    name: "model/layers.0/mlp/down_proj/Transpose_node_126"
    op_type: "Transpose"
    attribute {
      name: "perm"
      ints: 1
      ints: 0
      type: INTS
    }
    metadata_props {
      key: "namespace"
      value: ": Qwen35CausalLMModel/model: Qwen35TextModel/layers.0: Qwen35DecoderLayer/mlp: MLP/down_proj: Linear"
    }
    metadata_props {
      key: "pkg.onnxscript.class_hierarchy"
      value: "[\'Qwen35CausalLMModel\', \'Qwen35TextModel\', \'Qwen35DecoderLayer\', \'MLP\', \'Linear\']"
    }
    metadata_props {
      key: "pkg.onnxscript.name_scopes"
      value: "[\'\', \'model\', \'layers.0\', \'mlp\', \'down_proj\']"
    }
  }
  node {
    input: "v_model.layers.0.mlp.Mul_125"
    input: "v_model.layers.0.mlp.down_proj.Transpose_126"
    output: "v_model.layers.0.mlp.down_proj.MatMul_127"
    name: "model/layers.0/mlp/down_proj/MatMul_node_127"
    op_type: "MatMul"
    metadata_props {
      key: "namespace"
      value: ": Qwen35CausalLMModel/model: Qwen35TextModel/layers.0: Qwen35DecoderLayer/mlp: MLP/down_proj: Linear"
    }
    metadata_props {
      key: "pkg.onnxscript.class_hierarchy"
      value: "[\'Qwen35CausalLMModel\', \'Qwen35TextModel\', \'Qwen35DecoderLayer\', \'MLP\', \'Linear\']"
    }
    metadata_props {
      key: "pkg.onnxscript.name_scopes"
      value: "[\'\', \'model\', \'layers.0\', \'mlp\', \'down_proj\']"
    }
    metadata_props {
      key: "pkg.onnxscript.shape_inference_error"
      value: "Type of input 0 value v_model.layers.0.mlp.Mul_125 of node model/layers.0/mlp/down_proj/MatMul_node_127 not known"
    }
  }
  node {
    input: "v_model.layers.0.Add_116"
    input: "v_model.layers.0.mlp.down_proj.MatMul_127"
    output: "v_model.layers.0.Add_128"
    name: "model/layers.0/Add_node_128"
    op_type: "Add"
    metadata_props {
      key: "namespace"
      value: ": Qwen35CausalLMModel/model: Qwen35TextModel/layers.0: Qwen35DecoderLayer"
    }
    metadata_props {
      key: "pkg.onnxscript.class_hierarchy"
      value: "[\'Qwen35CausalLMModel\', \'Qwen35TextModel\', \'Qwen35DecoderLayer\']"
    }
    metadata_props {
      key: "pkg.onnxscript.name_scopes"
      value: "[\'\', \'model\', \'layers.0\']"
    }
    metadata_props {
      key: "pkg.onnxscript.shape_inference_error"
      value: "Type of input 0 value v_model.layers.0.Add_116 of node model/layers.0/Add_node_128 not known"
    }
  }
  node {
    input: "model.layers.1.input_layernorm.weight"
    input: "const_1.0_f16"
    output: "v_model.layers.1.input_layernorm.Add_129"
    name: "model/layers.1/input_layernorm/Add_node_129"
    op_type: "Add"
    metadata_props {
      key: "namespace"
      value: ": Qwen35CausalLMModel/model: Qwen35TextModel/layers.1: Qwen35DecoderLayer/input_layernorm: OffsetRMSNorm"
    }
    metadata_props {
      key: "pkg.onnxscript.class_hierarchy"
      value: "[\'Qwen35CausalLMModel\', \'Qwen35TextModel\', \'Qwen35DecoderLayer\', \'OffsetRMSNorm\']"
    }
    metadata_props {
      key: "pkg.onnxscript.name_scopes"
      value: "[\'\', \'model\', \'layers.1\', \'input_layernorm\']"
    }
  }
  node {
    input: "v_model.layers.0.Add_128"
    input: "v_model.layers.1.input_layernorm.Add_129"
    output: "v_model.layers.1.input_layernorm.RMSNormalization_130"
    name: "model/layers.1/input_layernorm/RMSNormalization_node_130"
    op_type: "RMSNormalization"
    attribute {
      name: "epsilon"
      f: 1e-06
      type: FLOAT
    }
    attribute {
      name: "axis"
      i: -1
      type: INT
    }
    metadata_props {
      key: "namespace"
      value: ": Qwen35CausalLMModel/model: Qwen35TextModel/layers.1: Qwen35DecoderLayer/input_layernorm: OffsetRMSNorm"
    }
    metadata_props {
      key: "pkg.onnxscript.class_hierarchy"
      value: "[\'Qwen35CausalLMModel\', \'Qwen35TextModel\', \'Qwen35DecoderLayer\', \'OffsetRMSNorm\']"
    }
    metadata_props {
      key: "pkg.onnxscript.name_scopes"
      value: "[\'\', \'model\', \'layers.1\', \'input_layernorm\']"
    }
    metadata_props {
      key: "pkg.onnxscript.shape_inference_error"
      value: "Type of input 0 value v_model.layers.0.Add_128 of node model/layers.1/input_layernorm/RMSNormalization_node_130 not known"
    }
  }
  node {
    input: "v_model.layers.1.input_layernorm.RMSNormalization_130"
    output: "v_model.layers.1.linear_attn.Shape_131"
    name: "model/layers.1/linear_attn/Shape_node_131"
    op_type: "Shape"
    attribute {
      name: "end"
      i: 1
      type: INT
    }
    attribute {
      name: "start"
      i: 0
      type: INT
    }
    metadata_props {
      key: "namespace"
      value: ": Qwen35CausalLMModel/model: Qwen35TextModel/layers.1: Qwen35DecoderLayer/linear_attn: GatedDeltaNet"
    }
    metadata_props {
      key: "pkg.onnxscript.class_hierarchy"
      value: "[\'Qwen35CausalLMModel\', \'Qwen35TextModel\', \'Qwen35DecoderLayer\', \'GatedDeltaNet\']"
    }
    metadata_props {
      key: "pkg.onnxscript.name_scopes"
      value: "[\'\', \'model\', \'layers.1\', \'linear_attn\']"
    }
    metadata_props {
      key: "pkg.onnxscript.shape_inference_error"
      value: "Type of input 0 value v_model.layers.1.input_layernorm.RMSNormalization_130 of node model/layers.1/linear_attn/Shape_node_131 not known"
    }
  }
  node {
    input: "model.layers.1.linear_attn.in_proj_qkv.weight"
    output: "v_model.layers.1.linear_attn.in_proj_qkv.Transpose_132"
    name: "model/layers.1/linear_attn/in_proj_qkv/Transpose_node_132"
    op_type: "Transpose"
    attribute {
      name: "perm"
      ints: 1
      ints: 0
      type: INTS
    }
    metadata_props {
      key: "namespace"
      value: ": Qwen35CausalLMModel/model: Qwen35TextModel/layers.1: Qwen35DecoderLayer/linear_attn: GatedDeltaNet/in_proj_qkv: Linear"
    }
    metadata_props {
      key: "pkg.onnxscript.class_hierarchy"
      value: "[\'Qwen35CausalLMModel\', \'Qwen35TextModel\', \'Qwen35DecoderLayer\', \'GatedDeltaNet\', \'Linear\']"
    }
    metadata_props {
      key: "pkg.onnxscript.name_scopes"
      value: "[\'\', \'model\', \'layers.1\', \'linear_attn\', \'in_proj_qkv\']"
    }
  }
  node {
    input: "v_model.layers.1.input_layernorm.RMSNormalization_130"
    input: "v_model.layers.1.linear_attn.in_proj_qkv.Transpose_132"
    output: "v_model.layers.1.linear_attn.in_proj_qkv.MatMul_133"
    name: "model/layers.1/linear_attn/in_proj_qkv/MatMul_node_133"
    op_type: "MatMul"
    metadata_props {
      key: "namespace"
      value: ": Qwen35CausalLMModel/model: Qwen35TextModel/layers.1: Qwen35DecoderLayer/linear_attn: GatedDeltaNet/in_proj_qkv: Linear"
    }
    metadata_props {
      key: "pkg.onnxscript.class_hierarchy"
      value: "[\'Qwen35CausalLMModel\', \'Qwen35TextModel\', \'Qwen35DecoderLayer\', \'GatedDeltaNet\', \'Linear\']"
    }
    metadata_props {
      key: "pkg.onnxscript.name_scopes"
      value: "[\'\', \'model\', \'layers.1\', \'linear_attn\', \'in_proj_qkv\']"
    }
    metadata_props {
      key: "pkg.onnxscript.shape_inference_error"
      value: "Type of input 0 value v_model.layers.1.input_layernorm.RMSNormalization_130 of node model/layers.1/linear_attn/in_proj_qkv/MatMul_node_133 not known"
    }
  }
  node {
    input: "model.layers.1.linear_attn.in_proj_z.weight"
    output: "v_model.layers.1.linear_attn.in_proj_z.Transpose_134"
    name: "model/layers.1/linear_attn/in_proj_z/Transpose_node_134"
    op_type: "Transpose"
    attribute {
      name: "perm"
      ints: 1
      ints: 0
      type: INTS
    }
    metadata_props {
      key: "namespace"
      value: ": Qwen35CausalLMModel/model: Qwen35TextModel/layers.1: Qwen35DecoderLayer/linear_attn: GatedDeltaNet/in_proj_z: Linear"
    }
    metadata_props {
      key: "pkg.onnxscript.class_hierarchy"
      value: "[\'Qwen35CausalLMModel\', \'Qwen35TextModel\', \'Qwen35DecoderLayer\', \'GatedDeltaNet\', \'Linear\']"
    }
    metadata_props {
      key: "pkg.onnxscript.name_scopes"
      value: "[\'\', \'model\', \'layers.1\', \'linear_attn\', \'in_proj_z\']"
    }
  }
  node {
    input: "v_model.layers.1.input_layernorm.RMSNormalization_130"
    input: "v_model.layers.1.linear_attn.in_proj_z.Transpose_134"
    output: "v_model.layers.1.linear_attn.in_proj_z.MatMul_135"
    name: "model/layers.1/linear_attn/in_proj_z/MatMul_node_135"
    op_type: "MatMul"
    metadata_props {
      key: "namespace"
      value: ": Qwen35CausalLMModel/model: Qwen35TextModel/layers.1: Qwen35DecoderLayer/linear_attn: GatedDeltaNet/in_proj_z: Linear"
    }
    metadata_props {
      key: "pkg.onnxscript.class_hierarchy"
      value: "[\'Qwen35CausalLMModel\', \'Qwen35TextModel\', \'Qwen35DecoderLayer\', \'GatedDeltaNet\', \'Linear\']"
    }
    metadata_props {
      key: "pkg.onnxscript.name_scopes"
      value: "[\'\', \'model\', \'layers.1\', \'linear_attn\', \'in_proj_z\']"
    }
    metadata_props {
      key: "pkg.onnxscript.shape_inference_error"
      value: "Type of input 0 value v_model.layers.1.input_layernorm.RMSNormalization_130 of node model/layers.1/linear_attn/in_proj_z/MatMul_node_135 not known"
    }
  }
  node {
    input: "model.layers.1.linear_attn.in_proj_b.weight"
    output: "v_model.layers.1.linear_attn.in_proj_b.Transpose_136"
    name: "model/layers.1/linear_attn/in_proj_b/Transpose_node_136"
    op_type: "Transpose"
    attribute {
      name: "perm"
      ints: 1
      ints: 0
      type: INTS
    }
    metadata_props {
      key: "namespace"
      value: ": Qwen35CausalLMModel/model: Qwen35TextModel/layers.1: Qwen35DecoderLayer/linear_attn: GatedDeltaNet/in_proj_b: Linear"
    }
    metadata_props {
      key: "pkg.onnxscript.class_hierarchy"
      value: "[\'Qwen35CausalLMModel\', \'Qwen35TextModel\', \'Qwen35DecoderLayer\', \'GatedDeltaNet\', \'Linear\']"
    }
    metadata_props {
      key: "pkg.onnxscript.name_scopes"
      value: "[\'\', \'model\', \'layers.1\', \'linear_attn\', \'in_proj_b\']"
    }
  }
  node {
    input: "v_model.layers.1.input_layernorm.RMSNormalization_130"
    input: "v_model.layers.1.linear_attn.in_proj_b.Transpose_136"
    output: "v_model.layers.1.linear_attn.in_proj_b.MatMul_137"
    name: "model/layers.1/linear_attn/in_proj_b/MatMul_node_137"
    op_type: "MatMul"
    metadata_props {
      key: "namespace"
      value: ": Qwen35CausalLMModel/model: Qwen35TextModel/layers.1: Qwen35DecoderLayer/linear_attn: GatedDeltaNet/in_proj_b: Linear"
    }
    metadata_props {
      key: "pkg.onnxscript.class_hierarchy"
      value: "[\'Qwen35CausalLMModel\', \'Qwen35TextModel\', \'Qwen35DecoderLayer\', \'GatedDeltaNet\', \'Linear\']"
    }
    metadata_props {
      key: "pkg.onnxscript.name_scopes"
      value: "[\'\', \'model\', \'layers.1\', \'linear_attn\', \'in_proj_b\']"
    }
    metadata_props {
      key: "pkg.onnxscript.shape_inference_error"
      value: "Type of input 0 value v_model.layers.1.input_layernorm.RMSNormalization_130 of node model/layers.1/linear_attn/in_proj_b/MatMul_node_137 not known"
    }
  }
  node {
    input: "model.layers.1.linear_attn.in_proj_a.weight"
    output: "v_model.layers.1.linear_attn.in_proj_a.Transpose_138"
    name: "model/layers.1/linear_attn/in_proj_a/Transpose_node_138"
    op_type: "Transpose"
    attribute {
      name: "perm"
      ints: 1
      ints: 0
      type: INTS
    }
    metadata_props {
      key: "namespace"
      value: ": Qwen35CausalLMModel/model: Qwen35TextModel/layers.1: Qwen35DecoderLayer/linear_attn: GatedDeltaNet/in_proj_a: Linear"
    }
    metadata_props {
      key: "pkg.onnxscript.class_hierarchy"
      value: "[\'Qwen35CausalLMModel\', \'Qwen35TextModel\', \'Qwen35DecoderLayer\', \'GatedDeltaNet\', \'Linear\']"
    }
    metadata_props {
      key: "pkg.onnxscript.name_scopes"
      value: "[\'\', \'model\', \'layers.1\', \'linear_attn\', \'in_proj_a\']"
    }
  }
  node {
    input: "v_model.layers.1.input_layernorm.RMSNormalization_130"
    input: "v_model.layers.1.linear_attn.in_proj_a.Transpose_138"
    output: "v_model.layers.1.linear_attn.in_proj_a.MatMul_139"
    name: "model/layers.1/linear_attn/in_proj_a/MatMul_node_139"
    op_type: "MatMul"
    metadata_props {
      key: "namespace"
      value: ": Qwen35CausalLMModel/model: Qwen35TextModel/layers.1: Qwen35DecoderLayer/linear_attn: GatedDeltaNet/in_proj_a: Linear"
    }
    metadata_props {
      key: "pkg.onnxscript.class_hierarchy"
      value: "[\'Qwen35CausalLMModel\', \'Qwen35TextModel\', \'Qwen35DecoderLayer\', \'GatedDeltaNet\', \'Linear\']"
    }
    metadata_props {
      key: "pkg.onnxscript.name_scopes"
      value: "[\'\', \'model\', \'layers.1\', \'linear_attn\', \'in_proj_a\']"
    }
    metadata_props {
      key: "pkg.onnxscript.shape_inference_error"
      value: "Type of input 0 value v_model.layers.1.input_layernorm.RMSNormalization_130 of node model/layers.1/linear_attn/in_proj_a/MatMul_node_139 not known"
    }
  }
  node {
    input: "v_model.layers.1.linear_attn.in_proj_qkv.MatMul_133"
    output: "v_model.layers.1.linear_attn.Transpose_140"
    name: "model/layers.1/linear_attn/Transpose_node_140"
    op_type: "Transpose"
    attribute {
      name: "perm"
      ints: 0
      ints: 2
      ints: 1
      type: INTS
    }
    metadata_props {
      key: "namespace"
      value: ": Qwen35CausalLMModel/model: Qwen35TextModel/layers.1: Qwen35DecoderLayer/linear_attn: GatedDeltaNet"
    }
    metadata_props {
      key: "pkg.onnxscript.class_hierarchy"
      value: "[\'Qwen35CausalLMModel\', \'Qwen35TextModel\', \'Qwen35DecoderLayer\', \'GatedDeltaNet\']"
    }
    metadata_props {
      key: "pkg.onnxscript.name_scopes"
      value: "[\'\', \'model\', \'layers.1\', \'linear_attn\']"
    }
    metadata_props {
      key: "pkg.onnxscript.shape_inference_error"
      value: "Type of input 0 value v_model.layers.1.linear_attn.in_proj_qkv.MatMul_133 of node model/layers.1/linear_attn/Transpose_node_140 not known"
    }
  }
  node {
    input: "v_model.layers.0.linear_attn.conv1d.Constant_50"
    input: "model.layers.1.linear_attn.conv1d.weight"
    output: "v_model.layers.1.linear_attn.conv1d.CastLike_142"
    name: "model/layers.1/linear_attn/conv1d/CastLike_node_142"
    op_type: "CastLike"
    metadata_props {
      key: "namespace"
      value: ": Qwen35CausalLMModel/model: Qwen35TextModel/layers.1: Qwen35DecoderLayer/linear_attn: GatedDeltaNet/conv1d: _DepthwiseConv1d"
    }
    metadata_props {
      key: "pkg.onnxscript.class_hierarchy"
      value: "[\'Qwen35CausalLMModel\', \'Qwen35TextModel\', \'Qwen35DecoderLayer\', \'GatedDeltaNet\', \'_DepthwiseConv1d\']"
    }
    metadata_props {
      key: "pkg.onnxscript.name_scopes"
      value: "[\'\', \'model\', \'layers.1\', \'linear_attn\', \'conv1d\']"
    }
  }
  node {
    input: "v_model.layers.1.linear_attn.conv1d.CastLike_142"
    input: "v_model.layers.0.linear_attn.conv1d.Constant_52"
    output: "v_model.layers.1.linear_attn.conv1d.Expand_144"
    name: "model/layers.1/linear_attn/conv1d/Expand_node_144"
    op_type: "Expand"
    metadata_props {
      key: "namespace"
      value: ": Qwen35CausalLMModel/model: Qwen35TextModel/layers.1: Qwen35DecoderLayer/linear_attn: GatedDeltaNet/conv1d: _DepthwiseConv1d"
    }
    metadata_props {
      key: "pkg.onnxscript.class_hierarchy"
      value: "[\'Qwen35CausalLMModel\', \'Qwen35TextModel\', \'Qwen35DecoderLayer\', \'GatedDeltaNet\', \'_DepthwiseConv1d\']"
    }
    metadata_props {
      key: "pkg.onnxscript.name_scopes"
      value: "[\'\', \'model\', \'layers.1\', \'linear_attn\', \'conv1d\']"
    }
  }
  node {
    input: "v_model.layers.1.linear_attn.Transpose_140"
    input: "model.layers.1.linear_attn.conv1d.weight"
    input: "v_model.layers.1.linear_attn.conv1d.Expand_144"
    input: "past_key_values.1.conv_state"
    output: "v_model.layers.1.linear_attn.conv1d.CausalConv1DWithState_145_0"
    output: "present.1.conv_state"
    name: "model/layers.1/linear_attn/conv1d/CausalConv1DWithState_node_145"
    op_type: "CausalConv1DWithState"
    attribute {
      name: "activation"
      s: "silu"
      type: STRING
    }
    domain: "com.microsoft"
    metadata_props {
      key: "namespace"
      value: ": Qwen35CausalLMModel/model: Qwen35TextModel/layers.1: Qwen35DecoderLayer/linear_attn: GatedDeltaNet/conv1d: _DepthwiseConv1d"
    }
    metadata_props {
      key: "pkg.onnxscript.class_hierarchy"
      value: "[\'Qwen35CausalLMModel\', \'Qwen35TextModel\', \'Qwen35DecoderLayer\', \'GatedDeltaNet\', \'_DepthwiseConv1d\']"
    }
    metadata_props {
      key: "pkg.onnxscript.name_scopes"
      value: "[\'\', \'model\', \'layers.1\', \'linear_attn\', \'conv1d\']"
    }
    metadata_props {
      key: "pkg.onnxscript.shape_inference_error"
      value: "Type of input 0 value v_model.layers.1.linear_attn.Transpose_140 of node model/layers.1/linear_attn/conv1d/CausalConv1DWithState_node_145 not known"
    }
  }
  node {
    input: "v_model.layers.1.linear_attn.conv1d.CausalConv1DWithState_145_0"
    output: "v_model.layers.1.linear_attn.Transpose_146"
    name: "model/layers.1/linear_attn/Transpose_node_146"
    op_type: "Transpose"
    attribute {
      name: "perm"
      ints: 0
      ints: 2
      ints: 1
      type: INTS
    }
    metadata_props {
      key: "namespace"
      value: ": Qwen35CausalLMModel/model: Qwen35TextModel/layers.1: Qwen35DecoderLayer/linear_attn: GatedDeltaNet"
    }
    metadata_props {
      key: "pkg.onnxscript.class_hierarchy"
      value: "[\'Qwen35CausalLMModel\', \'Qwen35TextModel\', \'Qwen35DecoderLayer\', \'GatedDeltaNet\']"
    }
    metadata_props {
      key: "pkg.onnxscript.name_scopes"
      value: "[\'\', \'model\', \'layers.1\', \'linear_attn\']"
    }
    metadata_props {
      key: "pkg.onnxscript.shape_inference_error"
      value: "Type of input 0 value v_model.layers.1.linear_attn.conv1d.CausalConv1DWithState_145_0 of node model/layers.1/linear_attn/Transpose_node_146 not known"
    }
  }
  node {
    input: "v_model.layers.1.linear_attn.Transpose_146"
    input: "v_model.layers.0.linear_attn.Constant_56"
    output: "v_model.layers.1.linear_attn.Split_148_0"
    output: "v_model.layers.1.linear_attn.Split_148_1"
    output: "v_model.layers.1.linear_attn.Split_148_2"
    name: "model/layers.1/linear_attn/Split_node_148"
    op_type: "Split"
    attribute {
      name: "axis"
      i: -1
      type: INT
    }
    metadata_props {
      key: "namespace"
      value: ": Qwen35CausalLMModel/model: Qwen35TextModel/layers.1: Qwen35DecoderLayer/linear_attn: GatedDeltaNet"
    }
    metadata_props {
      key: "pkg.onnxscript.class_hierarchy"
      value: "[\'Qwen35CausalLMModel\', \'Qwen35TextModel\', \'Qwen35DecoderLayer\', \'GatedDeltaNet\']"
    }
    metadata_props {
      key: "pkg.onnxscript.name_scopes"
      value: "[\'\', \'model\', \'layers.1\', \'linear_attn\']"
    }
    metadata_props {
      key: "pkg.onnxscript.shape_inference_error"
      value: "Type of input 0 value v_model.layers.1.linear_attn.Transpose_146 of node model/layers.1/linear_attn/Split_node_148 not known"
    }
  }
  node {
    input: "v_model.layers.1.input_layernorm.RMSNormalization_130"
    output: "v_model.layers.1.linear_attn.Shape_149"
    name: "model/layers.1/linear_attn/Shape_node_149"
    op_type: "Shape"
    attribute {
      name: "end"
      i: 2
      type: INT
    }
    attribute {
      name: "start"
      i: 1
      type: INT
    }
    metadata_props {
      key: "namespace"
      value: ": Qwen35CausalLMModel/model: Qwen35TextModel/layers.1: Qwen35DecoderLayer/linear_attn: GatedDeltaNet"
    }
    metadata_props {
      key: "pkg.onnxscript.class_hierarchy"
      value: "[\'Qwen35CausalLMModel\', \'Qwen35TextModel\', \'Qwen35DecoderLayer\', \'GatedDeltaNet\']"
    }
    metadata_props {
      key: "pkg.onnxscript.name_scopes"
      value: "[\'\', \'model\', \'layers.1\', \'linear_attn\']"
    }
    metadata_props {
      key: "pkg.onnxscript.shape_inference_error"
      value: "Type of input 0 value v_model.layers.1.input_layernorm.RMSNormalization_130 of node model/layers.1/linear_attn/Shape_node_149 not known"
    }
  }
  node {
    input: "v_model.layers.1.linear_attn.Shape_131"
    input: "v_model.layers.1.linear_attn.Shape_149"
    input: "v_model.layers.0.linear_attn.Constant_59"
    input: "v_model.layers.0.linear_attn.Constant_60"
    output: "v_model.layers.1.linear_attn.Concat_152"
    name: "model/layers.1/linear_attn/Concat_node_152"
    op_type: "Concat"
    attribute {
      name: "axis"
      i: 0
      type: INT
    }
    metadata_props {
      key: "namespace"
      value: ": Qwen35CausalLMModel/model: Qwen35TextModel/layers.1: Qwen35DecoderLayer/linear_attn: GatedDeltaNet"
    }
    metadata_props {
      key: "pkg.onnxscript.class_hierarchy"
      value: "[\'Qwen35CausalLMModel\', \'Qwen35TextModel\', \'Qwen35DecoderLayer\', \'GatedDeltaNet\']"
    }
    metadata_props {
      key: "pkg.onnxscript.name_scopes"
      value: "[\'\', \'model\', \'layers.1\', \'linear_attn\']"
    }
    metadata_props {
      key: "pkg.onnxscript.shape_inference_error"
      value: "Type of input 0 value v_model.layers.1.linear_attn.Shape_131 of node model/layers.1/linear_attn/Concat_node_152 not known"
    }
  }
  node {
    input: "v_model.layers.1.linear_attn.Split_148_0"
    input: "v_model.layers.1.linear_attn.Concat_152"
    output: "v_model.layers.1.linear_attn.Reshape_153"
    name: "model/layers.1/linear_attn/Reshape_node_153"
    op_type: "Reshape"
    metadata_props {
      key: "namespace"
      value: ": Qwen35CausalLMModel/model: Qwen35TextModel/layers.1: Qwen35DecoderLayer/linear_attn: GatedDeltaNet"
    }
    metadata_props {
      key: "pkg.onnxscript.class_hierarchy"
      value: "[\'Qwen35CausalLMModel\', \'Qwen35TextModel\', \'Qwen35DecoderLayer\', \'GatedDeltaNet\']"
    }
    metadata_props {
      key: "pkg.onnxscript.name_scopes"
      value: "[\'\', \'model\', \'layers.1\', \'linear_attn\']"
    }
    metadata_props {
      key: "pkg.onnxscript.shape_inference_error"
      value: "Type of input 0 value v_model.layers.1.linear_attn.Split_148_0 of node model/layers.1/linear_attn/Reshape_node_153 not known"
    }
  }
  node {
    input: "v_model.layers.1.linear_attn.Split_148_1"
    input: "v_model.layers.1.linear_attn.Concat_152"
    output: "v_model.layers.1.linear_attn.Reshape_154"
    name: "model/layers.1/linear_attn/Reshape_node_154"
    op_type: "Reshape"
    metadata_props {
      key: "namespace"
      value: ": Qwen35CausalLMModel/model: Qwen35TextModel/layers.1: Qwen35DecoderLayer/linear_attn: GatedDeltaNet"
    }
    metadata_props {
      key: "pkg.onnxscript.class_hierarchy"
      value: "[\'Qwen35CausalLMModel\', \'Qwen35TextModel\', \'Qwen35DecoderLayer\', \'GatedDeltaNet\']"
    }
    metadata_props {
      key: "pkg.onnxscript.name_scopes"
      value: "[\'\', \'model\', \'layers.1\', \'linear_attn\']"
    }
    metadata_props {
      key: "pkg.onnxscript.shape_inference_error"
      value: "Type of input 0 value v_model.layers.1.linear_attn.Split_148_1 of node model/layers.1/linear_attn/Reshape_node_154 not known"
    }
  }
  node {
    input: "v_model.layers.1.linear_attn.Split_148_2"
    input: "v_model.layers.1.linear_attn.Concat_152"
    output: "v_model.layers.1.linear_attn.Reshape_158"
    name: "model/layers.1/linear_attn/Reshape_node_158"
    op_type: "Reshape"
    metadata_props {
      key: "namespace"
      value: ": Qwen35CausalLMModel/model: Qwen35TextModel/layers.1: Qwen35DecoderLayer/linear_attn: GatedDeltaNet"
    }
    metadata_props {
      key: "pkg.onnxscript.class_hierarchy"
      value: "[\'Qwen35CausalLMModel\', \'Qwen35TextModel\', \'Qwen35DecoderLayer\', \'GatedDeltaNet\']"
    }
    metadata_props {
      key: "pkg.onnxscript.name_scopes"
      value: "[\'\', \'model\', \'layers.1\', \'linear_attn\']"
    }
    metadata_props {
      key: "pkg.onnxscript.shape_inference_error"
      value: "Type of input 0 value v_model.layers.1.linear_attn.Split_148_2 of node model/layers.1/linear_attn/Reshape_node_158 not known"
    }
  }
  node {
    input: "v_model.layers.1.linear_attn.in_proj_z.MatMul_135"
    input: "v_model.layers.1.linear_attn.Concat_152"
    output: "v_model.layers.1.linear_attn.Reshape_159"
    name: "model/layers.1/linear_attn/Reshape_node_159"
    op_type: "Reshape"
    metadata_props {
      key: "namespace"
      value: ": Qwen35CausalLMModel/model: Qwen35TextModel/layers.1: Qwen35DecoderLayer/linear_attn: GatedDeltaNet"
    }
    metadata_props {
      key: "pkg.onnxscript.class_hierarchy"
      value: "[\'Qwen35CausalLMModel\', \'Qwen35TextModel\', \'Qwen35DecoderLayer\', \'GatedDeltaNet\']"
    }
    metadata_props {
      key: "pkg.onnxscript.name_scopes"
      value: "[\'\', \'model\', \'layers.1\', \'linear_attn\']"
    }
    metadata_props {
      key: "pkg.onnxscript.shape_inference_error"
      value: "Type of input 0 value v_model.layers.1.linear_attn.in_proj_z.MatMul_135 of node model/layers.1/linear_attn/Reshape_node_159 not known"
    }
  }
  node {
    input: "v_model.layers.1.linear_attn.Reshape_153"
    input: "v_model.layers.1.linear_attn.Reshape_153"
    output: "v_model.layers.1.linear_attn.Mul_160"
    name: "model/layers.1/linear_attn/Mul_node_160"
    op_type: "Mul"
    metadata_props {
      key: "namespace"
      value: ": Qwen35CausalLMModel/model: Qwen35TextModel/layers.1: Qwen35DecoderLayer/linear_attn: GatedDeltaNet"
    }
    metadata_props {
      key: "pkg.onnxscript.class_hierarchy"
      value: "[\'Qwen35CausalLMModel\', \'Qwen35TextModel\', \'Qwen35DecoderLayer\', \'GatedDeltaNet\']"
    }
    metadata_props {
      key: "pkg.onnxscript.name_scopes"
      value: "[\'\', \'model\', \'layers.1\', \'linear_attn\']"
    }
    metadata_props {
      key: "pkg.onnxscript.shape_inference_error"
      value: "Type of input 0 value v_model.layers.1.linear_attn.Reshape_153 of node model/layers.1/linear_attn/Mul_node_160 not known"
    }
  }
  node {
    input: "v_model.layers.1.linear_attn.Mul_160"
    input: "const_1d_10"
    output: "v_model.layers.1.linear_attn.ReduceSum_161"
    name: "model/layers.1/linear_attn/ReduceSum_node_161"
    op_type: "ReduceSum"
    attribute {
      name: "keepdims"
      i: 1
      type: INT
    }
    metadata_props {
      key: "namespace"
      value: ": Qwen35CausalLMModel/model: Qwen35TextModel/layers.1: Qwen35DecoderLayer/linear_attn: GatedDeltaNet"
    }
    metadata_props {
      key: "pkg.onnxscript.class_hierarchy"
      value: "[\'Qwen35CausalLMModel\', \'Qwen35TextModel\', \'Qwen35DecoderLayer\', \'GatedDeltaNet\']"
    }
    metadata_props {
      key: "pkg.onnxscript.name_scopes"
      value: "[\'\', \'model\', \'layers.1\', \'linear_attn\']"
    }
    metadata_props {
      key: "pkg.onnxscript.shape_inference_error"
      value: "Type of input 0 value v_model.layers.1.linear_attn.Mul_160 of node model/layers.1/linear_attn/ReduceSum_node_161 not known"
    }
  }
  node {
    input: "v_model.layers.0.linear_attn.Constant_71"
    input: "v_model.layers.1.linear_attn.Reshape_153"
    output: "v_model.layers.1.linear_attn.CastLike_163"
    name: "model/layers.1/linear_attn/CastLike_node_163"
    op_type: "CastLike"
    metadata_props {
      key: "namespace"
      value: ": Qwen35CausalLMModel/model: Qwen35TextModel/layers.1: Qwen35DecoderLayer/linear_attn: GatedDeltaNet"
    }
    metadata_props {
      key: "pkg.onnxscript.class_hierarchy"
      value: "[\'Qwen35CausalLMModel\', \'Qwen35TextModel\', \'Qwen35DecoderLayer\', \'GatedDeltaNet\']"
    }
    metadata_props {
      key: "pkg.onnxscript.name_scopes"
      value: "[\'\', \'model\', \'layers.1\', \'linear_attn\']"
    }
    metadata_props {
      key: "pkg.onnxscript.shape_inference_error"
      value: "Type of input 1 value v_model.layers.1.linear_attn.Reshape_153 of node model/layers.1/linear_attn/CastLike_node_163 not known"
    }
  }
  node {
    input: "v_model.layers.1.linear_attn.ReduceSum_161"
    input: "v_model.layers.1.linear_attn.CastLike_163"
    output: "v_model.layers.1.linear_attn.Add_164"
    name: "model/layers.1/linear_attn/Add_node_164"
    op_type: "Add"
    metadata_props {
      key: "namespace"
      value: ": Qwen35CausalLMModel/model: Qwen35TextModel/layers.1: Qwen35DecoderLayer/linear_attn: GatedDeltaNet"
    }
    metadata_props {
      key: "pkg.onnxscript.class_hierarchy"
      value: "[\'Qwen35CausalLMModel\', \'Qwen35TextModel\', \'Qwen35DecoderLayer\', \'GatedDeltaNet\']"
    }
    metadata_props {
      key: "pkg.onnxscript.name_scopes"
      value: "[\'\', \'model\', \'layers.1\', \'linear_attn\']"
    }
    metadata_props {
      key: "pkg.onnxscript.shape_inference_error"
      value: "Type of input 0 value v_model.layers.1.linear_attn.ReduceSum_161 of node model/layers.1/linear_attn/Add_node_164 not known"
    }
  }
  node {
    input: "v_model.layers.1.linear_attn.Add_164"
    output: "v_model.layers.1.linear_attn.Sqrt_165"
    name: "model/layers.1/linear_attn/Sqrt_node_165"
    op_type: "Sqrt"
    metadata_props {
      key: "namespace"
      value: ": Qwen35CausalLMModel/model: Qwen35TextModel/layers.1: Qwen35DecoderLayer/linear_attn: GatedDeltaNet"
    }
    metadata_props {
      key: "pkg.onnxscript.class_hierarchy"
      value: "[\'Qwen35CausalLMModel\', \'Qwen35TextModel\', \'Qwen35DecoderLayer\', \'GatedDeltaNet\']"
    }
    metadata_props {
      key: "pkg.onnxscript.name_scopes"
      value: "[\'\', \'model\', \'layers.1\', \'linear_attn\']"
    }
    metadata_props {
      key: "pkg.onnxscript.shape_inference_error"
      value: "Type of input 0 value v_model.layers.1.linear_attn.Add_164 of node model/layers.1/linear_attn/Sqrt_node_165 not known"
    }
  }
  node {
    input: "v_model.layers.1.linear_attn.Sqrt_165"
    output: "v_model.layers.1.linear_attn.Reciprocal_166"
    name: "model/layers.1/linear_attn/Reciprocal_node_166"
    op_type: "Reciprocal"
    metadata_props {
      key: "namespace"
      value: ": Qwen35CausalLMModel/model: Qwen35TextModel/layers.1: Qwen35DecoderLayer/linear_attn: GatedDeltaNet"
    }
    metadata_props {
      key: "pkg.onnxscript.class_hierarchy"
      value: "[\'Qwen35CausalLMModel\', \'Qwen35TextModel\', \'Qwen35DecoderLayer\', \'GatedDeltaNet\']"
    }
    metadata_props {
      key: "pkg.onnxscript.name_scopes"
      value: "[\'\', \'model\', \'layers.1\', \'linear_attn\']"
    }
    metadata_props {
      key: "pkg.onnxscript.shape_inference_error"
      value: "Type of input 0 value v_model.layers.1.linear_attn.Sqrt_165 of node model/layers.1/linear_attn/Reciprocal_node_166 not known"
    }
  }
  node {
    input: "v_model.layers.1.linear_attn.Reshape_153"
    input: "v_model.layers.1.linear_attn.Reciprocal_166"
    output: "v_model.layers.1.linear_attn.Mul_167"
    name: "model/layers.1/linear_attn/Mul_node_167"
    op_type: "Mul"
    metadata_props {
      key: "namespace"
      value: ": Qwen35CausalLMModel/model: Qwen35TextModel/layers.1: Qwen35DecoderLayer/linear_attn: GatedDeltaNet"
    }
    metadata_props {
      key: "pkg.onnxscript.class_hierarchy"
      value: "[\'Qwen35CausalLMModel\', \'Qwen35TextModel\', \'Qwen35DecoderLayer\', \'GatedDeltaNet\']"
    }
    metadata_props {
      key: "pkg.onnxscript.name_scopes"
      value: "[\'\', \'model\', \'layers.1\', \'linear_attn\']"
    }
    metadata_props {
      key: "pkg.onnxscript.shape_inference_error"
      value: "Type of input 0 value v_model.layers.1.linear_attn.Reshape_153 of node model/layers.1/linear_attn/Mul_node_167 not known"
    }
  }
  node {
    input: "v_model.layers.1.linear_attn.Reshape_154"
    input: "v_model.layers.1.linear_attn.Reshape_154"
    output: "v_model.layers.1.linear_attn.Mul_168"
    name: "model/layers.1/linear_attn/Mul_node_168"
    op_type: "Mul"
    metadata_props {
      key: "namespace"
      value: ": Qwen35CausalLMModel/model: Qwen35TextModel/layers.1: Qwen35DecoderLayer/linear_attn: GatedDeltaNet"
    }
    metadata_props {
      key: "pkg.onnxscript.class_hierarchy"
      value: "[\'Qwen35CausalLMModel\', \'Qwen35TextModel\', \'Qwen35DecoderLayer\', \'GatedDeltaNet\']"
    }
    metadata_props {
      key: "pkg.onnxscript.name_scopes"
      value: "[\'\', \'model\', \'layers.1\', \'linear_attn\']"
    }
    metadata_props {
      key: "pkg.onnxscript.shape_inference_error"
      value: "Type of input 0 value v_model.layers.1.linear_attn.Reshape_154 of node model/layers.1/linear_attn/Mul_node_168 not known"
    }
  }
  node {
    input: "v_model.layers.1.linear_attn.Mul_168"
    input: "const_1d_10"
    output: "v_model.layers.1.linear_attn.ReduceSum_169"
    name: "model/layers.1/linear_attn/ReduceSum_node_169"
    op_type: "ReduceSum"
    attribute {
      name: "keepdims"
      i: 1
      type: INT
    }
    metadata_props {
      key: "namespace"
      value: ": Qwen35CausalLMModel/model: Qwen35TextModel/layers.1: Qwen35DecoderLayer/linear_attn: GatedDeltaNet"
    }
    metadata_props {
      key: "pkg.onnxscript.class_hierarchy"
      value: "[\'Qwen35CausalLMModel\', \'Qwen35TextModel\', \'Qwen35DecoderLayer\', \'GatedDeltaNet\']"
    }
    metadata_props {
      key: "pkg.onnxscript.name_scopes"
      value: "[\'\', \'model\', \'layers.1\', \'linear_attn\']"
    }
    metadata_props {
      key: "pkg.onnxscript.shape_inference_error"
      value: "Type of input 0 value v_model.layers.1.linear_attn.Mul_168 of node model/layers.1/linear_attn/ReduceSum_node_169 not known"
    }
  }
  node {
    input: "v_model.layers.0.linear_attn.Constant_71"
    input: "v_model.layers.1.linear_attn.Reshape_154"
    output: "v_model.layers.1.linear_attn.CastLike_171"
    name: "model/layers.1/linear_attn/CastLike_node_171"
    op_type: "CastLike"
    metadata_props {
      key: "namespace"
      value: ": Qwen35CausalLMModel/model: Qwen35TextModel/layers.1: Qwen35DecoderLayer/linear_attn: GatedDeltaNet"
    }
    metadata_props {
      key: "pkg.onnxscript.class_hierarchy"
      value: "[\'Qwen35CausalLMModel\', \'Qwen35TextModel\', \'Qwen35DecoderLayer\', \'GatedDeltaNet\']"
    }
    metadata_props {
      key: "pkg.onnxscript.name_scopes"
      value: "[\'\', \'model\', \'layers.1\', \'linear_attn\']"
    }
    metadata_props {
      key: "pkg.onnxscript.shape_inference_error"
      value: "Type of input 1 value v_model.layers.1.linear_attn.Reshape_154 of node model/layers.1/linear_attn/CastLike_node_171 not known"
    }
  }
  node {
    input: "v_model.layers.1.linear_attn.ReduceSum_169"
    input: "v_model.layers.1.linear_attn.CastLike_171"
    output: "v_model.layers.1.linear_attn.Add_172"
    name: "model/layers.1/linear_attn/Add_node_172"
    op_type: "Add"
    metadata_props {
      key: "namespace"
      value: ": Qwen35CausalLMModel/model: Qwen35TextModel/layers.1: Qwen35DecoderLayer/linear_attn: GatedDeltaNet"
    }
    metadata_props {
      key: "pkg.onnxscript.class_hierarchy"
      value: "[\'Qwen35CausalLMModel\', \'Qwen35TextModel\', \'Qwen35DecoderLayer\', \'GatedDeltaNet\']"
    }
    metadata_props {
      key: "pkg.onnxscript.name_scopes"
      value: "[\'\', \'model\', \'layers.1\', \'linear_attn\']"
    }
    metadata_props {
      key: "pkg.onnxscript.shape_inference_error"
      value: "Type of input 0 value v_model.layers.1.linear_attn.ReduceSum_169 of node model/layers.1/linear_attn/Add_node_172 not known"
    }
  }
  node {
    input: "v_model.layers.1.linear_attn.Add_172"
    output: "v_model.layers.1.linear_attn.Sqrt_173"
    name: "model/layers.1/linear_attn/Sqrt_node_173"
    op_type: "Sqrt"
    metadata_props {
      key: "namespace"
      value: ": Qwen35CausalLMModel/model: Qwen35TextModel/layers.1: Qwen35DecoderLayer/linear_attn: GatedDeltaNet"
    }
    metadata_props {
      key: "pkg.onnxscript.class_hierarchy"
      value: "[\'Qwen35CausalLMModel\', \'Qwen35TextModel\', \'Qwen35DecoderLayer\', \'GatedDeltaNet\']"
    }
    metadata_props {
      key: "pkg.onnxscript.name_scopes"
      value: "[\'\', \'model\', \'layers.1\', \'linear_attn\']"
    }
    metadata_props {
      key: "pkg.onnxscript.shape_inference_error"
      value: "Type of input 0 value v_model.layers.1.linear_attn.Add_172 of node model/layers.1/linear_attn/Sqrt_node_173 not known"
    }
  }
  node {
    input: "v_model.layers.1.linear_attn.Sqrt_173"
    output: "v_model.layers.1.linear_attn.Reciprocal_174"
    name: "model/layers.1/linear_attn/Reciprocal_node_174"
    op_type: "Reciprocal"
    metadata_props {
      key: "namespace"
      value: ": Qwen35CausalLMModel/model: Qwen35TextModel/layers.1: Qwen35DecoderLayer/linear_attn: GatedDeltaNet"
    }
    metadata_props {
      key: "pkg.onnxscript.class_hierarchy"
      value: "[\'Qwen35CausalLMModel\', \'Qwen35TextModel\', \'Qwen35DecoderLayer\', \'GatedDeltaNet\']"
    }
    metadata_props {
      key: "pkg.onnxscript.name_scopes"
      value: "[\'\', \'model\', \'layers.1\', \'linear_attn\']"
    }
    metadata_props {
      key: "pkg.onnxscript.shape_inference_error"
      value: "Type of input 0 value v_model.layers.1.linear_attn.Sqrt_173 of node model/layers.1/linear_attn/Reciprocal_node_174 not known"
    }
  }
  node {
    input: "v_model.layers.1.linear_attn.Reshape_154"
    input: "v_model.layers.1.linear_attn.Reciprocal_174"
    output: "v_model.layers.1.linear_attn.Mul_175"
    name: "model/layers.1/linear_attn/Mul_node_175"
    op_type: "Mul"
    metadata_props {
      key: "namespace"
      value: ": Qwen35CausalLMModel/model: Qwen35TextModel/layers.1: Qwen35DecoderLayer/linear_attn: GatedDeltaNet"
    }
    metadata_props {
      key: "pkg.onnxscript.class_hierarchy"
      value: "[\'Qwen35CausalLMModel\', \'Qwen35TextModel\', \'Qwen35DecoderLayer\', \'GatedDeltaNet\']"
    }
    metadata_props {
      key: "pkg.onnxscript.name_scopes"
      value: "[\'\', \'model\', \'layers.1\', \'linear_attn\']"
    }
    metadata_props {
      key: "pkg.onnxscript.shape_inference_error"
      value: "Type of input 0 value v_model.layers.1.linear_attn.Reshape_154 of node model/layers.1/linear_attn/Mul_node_175 not known"
    }
  }
  node {
    input: "v_model.layers.0.linear_attn.Constant_85"
    input: "v_model.layers.1.linear_attn.Mul_167"
    output: "v_model.layers.1.linear_attn.CastLike_177"
    name: "model/layers.1/linear_attn/CastLike_node_177"
    op_type: "CastLike"
    metadata_props {
      key: "namespace"
      value: ": Qwen35CausalLMModel/model: Qwen35TextModel/layers.1: Qwen35DecoderLayer/linear_attn: GatedDeltaNet"
    }
    metadata_props {
      key: "pkg.onnxscript.class_hierarchy"
      value: "[\'Qwen35CausalLMModel\', \'Qwen35TextModel\', \'Qwen35DecoderLayer\', \'GatedDeltaNet\']"
    }
    metadata_props {
      key: "pkg.onnxscript.name_scopes"
      value: "[\'\', \'model\', \'layers.1\', \'linear_attn\']"
    }
    metadata_props {
      key: "pkg.onnxscript.shape_inference_error"
      value: "Type of input 1 value v_model.layers.1.linear_attn.Mul_167 of node model/layers.1/linear_attn/CastLike_node_177 not known"
    }
  }
  node {
    input: "v_model.layers.1.linear_attn.Mul_167"
    input: "v_model.layers.1.linear_attn.CastLike_177"
    output: "v_model.layers.1.linear_attn.Mul_178"
    name: "model/layers.1/linear_attn/Mul_node_178"
    op_type: "Mul"
    metadata_props {
      key: "namespace"
      value: ": Qwen35CausalLMModel/model: Qwen35TextModel/layers.1: Qwen35DecoderLayer/linear_attn: GatedDeltaNet"
    }
    metadata_props {
      key: "pkg.onnxscript.class_hierarchy"
      value: "[\'Qwen35CausalLMModel\', \'Qwen35TextModel\', \'Qwen35DecoderLayer\', \'GatedDeltaNet\']"
    }
    metadata_props {
      key: "pkg.onnxscript.name_scopes"
      value: "[\'\', \'model\', \'layers.1\', \'linear_attn\']"
    }
    metadata_props {
      key: "pkg.onnxscript.shape_inference_error"
      value: "Type of input 0 value v_model.layers.1.linear_attn.Mul_167 of node model/layers.1/linear_attn/Mul_node_178 not known"
    }
  }
  node {
    input: "v_model.layers.1.linear_attn.in_proj_b.MatMul_137"
    output: "v_model.layers.1.linear_attn.Sigmoid_179"
    name: "model/layers.1/linear_attn/Sigmoid_node_179"
    op_type: "Sigmoid"
    metadata_props {
      key: "namespace"
      value: ": Qwen35CausalLMModel/model: Qwen35TextModel/layers.1: Qwen35DecoderLayer/linear_attn: GatedDeltaNet"
    }
    metadata_props {
      key: "pkg.onnxscript.class_hierarchy"
      value: "[\'Qwen35CausalLMModel\', \'Qwen35TextModel\', \'Qwen35DecoderLayer\', \'GatedDeltaNet\']"
    }
    metadata_props {
      key: "pkg.onnxscript.name_scopes"
      value: "[\'\', \'model\', \'layers.1\', \'linear_attn\']"
    }
    metadata_props {
      key: "pkg.onnxscript.shape_inference_error"
      value: "Type of input 0 value v_model.layers.1.linear_attn.in_proj_b.MatMul_137 of node model/layers.1/linear_attn/Sigmoid_node_179 not known"
    }
  }
  node {
    input: "v_model.layers.1.linear_attn.in_proj_a.MatMul_139"
    output: "v_model.layers.1.linear_attn.Cast_180"
    name: "model/layers.1/linear_attn/Cast_node_180"
    op_type: "Cast"
    attribute {
      name: "to"
      i: 1
      type: INT
    }
    metadata_props {
      key: "namespace"
      value: ": Qwen35CausalLMModel/model: Qwen35TextModel/layers.1: Qwen35DecoderLayer/linear_attn: GatedDeltaNet"
    }
    metadata_props {
      key: "pkg.onnxscript.class_hierarchy"
      value: "[\'Qwen35CausalLMModel\', \'Qwen35TextModel\', \'Qwen35DecoderLayer\', \'GatedDeltaNet\']"
    }
    metadata_props {
      key: "pkg.onnxscript.name_scopes"
      value: "[\'\', \'model\', \'layers.1\', \'linear_attn\']"
    }
    metadata_props {
      key: "pkg.onnxscript.shape_inference_error"
      value: "Type of input 0 value v_model.layers.1.linear_attn.in_proj_a.MatMul_139 of node model/layers.1/linear_attn/Cast_node_180 not known"
    }
  }
  node {
    input: "model.layers.1.linear_attn.dt_bias"
    output: "v_model.layers.1.linear_attn.Cast_181"
    name: "model/layers.1/linear_attn/Cast_node_181"
    op_type: "Cast"
    attribute {
      name: "to"
      i: 1
      type: INT
    }
    metadata_props {
      key: "namespace"
      value: ": Qwen35CausalLMModel/model: Qwen35TextModel/layers.1: Qwen35DecoderLayer/linear_attn: GatedDeltaNet"
    }
    metadata_props {
      key: "pkg.onnxscript.class_hierarchy"
      value: "[\'Qwen35CausalLMModel\', \'Qwen35TextModel\', \'Qwen35DecoderLayer\', \'GatedDeltaNet\']"
    }
    metadata_props {
      key: "pkg.onnxscript.name_scopes"
      value: "[\'\', \'model\', \'layers.1\', \'linear_attn\']"
    }
  }
  node {
    input: "model.layers.1.linear_attn.A_log"
    output: "v_model.layers.1.linear_attn.Cast_182"
    name: "model/layers.1/linear_attn/Cast_node_182"
    op_type: "Cast"
    attribute {
      name: "to"
      i: 1
      type: INT
    }
    metadata_props {
      key: "namespace"
      value: ": Qwen35CausalLMModel/model: Qwen35TextModel/layers.1: Qwen35DecoderLayer/linear_attn: GatedDeltaNet"
    }
    metadata_props {
      key: "pkg.onnxscript.class_hierarchy"
      value: "[\'Qwen35CausalLMModel\', \'Qwen35TextModel\', \'Qwen35DecoderLayer\', \'GatedDeltaNet\']"
    }
    metadata_props {
      key: "pkg.onnxscript.name_scopes"
      value: "[\'\', \'model\', \'layers.1\', \'linear_attn\']"
    }
  }
  node {
    input: "v_model.layers.1.linear_attn.Cast_180"
    input: "v_model.layers.1.linear_attn.Cast_181"
    output: "v_model.layers.1.linear_attn.Add_183"
    name: "model/layers.1/linear_attn/Add_node_183"
    op_type: "Add"
    metadata_props {
      key: "namespace"
      value: ": Qwen35CausalLMModel/model: Qwen35TextModel/layers.1: Qwen35DecoderLayer/linear_attn: GatedDeltaNet"
    }
    metadata_props {
      key: "pkg.onnxscript.class_hierarchy"
      value: "[\'Qwen35CausalLMModel\', \'Qwen35TextModel\', \'Qwen35DecoderLayer\', \'GatedDeltaNet\']"
    }
    metadata_props {
      key: "pkg.onnxscript.name_scopes"
      value: "[\'\', \'model\', \'layers.1\', \'linear_attn\']"
    }
    metadata_props {
      key: "pkg.onnxscript.shape_inference_error"
      value: "Type of input 0 value v_model.layers.1.linear_attn.Cast_180 of node model/layers.1/linear_attn/Add_node_183 not known"
    }
  }
  node {
    input: "v_model.layers.1.linear_attn.Add_183"
    output: "v_model.layers.1.linear_attn.Softplus_184"
    name: "model/layers.1/linear_attn/Softplus_node_184"
    op_type: "Softplus"
    metadata_props {
      key: "namespace"
      value: ": Qwen35CausalLMModel/model: Qwen35TextModel/layers.1: Qwen35DecoderLayer/linear_attn: GatedDeltaNet"
    }
    metadata_props {
      key: "pkg.onnxscript.class_hierarchy"
      value: "[\'Qwen35CausalLMModel\', \'Qwen35TextModel\', \'Qwen35DecoderLayer\', \'GatedDeltaNet\']"
    }
    metadata_props {
      key: "pkg.onnxscript.name_scopes"
      value: "[\'\', \'model\', \'layers.1\', \'linear_attn\']"
    }
    metadata_props {
      key: "pkg.onnxscript.shape_inference_error"
      value: "Type of input 0 value v_model.layers.1.linear_attn.Add_183 of node model/layers.1/linear_attn/Softplus_node_184 not known"
    }
  }
  node {
    input: "v_model.layers.1.linear_attn.Cast_182"
    output: "v_model.layers.1.linear_attn.Exp_185"
    name: "model/layers.1/linear_attn/Exp_node_185"
    op_type: "Exp"
    metadata_props {
      key: "namespace"
      value: ": Qwen35CausalLMModel/model: Qwen35TextModel/layers.1: Qwen35DecoderLayer/linear_attn: GatedDeltaNet"
    }
    metadata_props {
      key: "pkg.onnxscript.class_hierarchy"
      value: "[\'Qwen35CausalLMModel\', \'Qwen35TextModel\', \'Qwen35DecoderLayer\', \'GatedDeltaNet\']"
    }
    metadata_props {
      key: "pkg.onnxscript.name_scopes"
      value: "[\'\', \'model\', \'layers.1\', \'linear_attn\']"
    }
  }
  node {
    input: "v_model.layers.1.linear_attn.Exp_185"
    output: "v_model.layers.1.linear_attn.Neg_186"
    name: "model/layers.1/linear_attn/Neg_node_186"
    op_type: "Neg"
    metadata_props {
      key: "namespace"
      value: ": Qwen35CausalLMModel/model: Qwen35TextModel/layers.1: Qwen35DecoderLayer/linear_attn: GatedDeltaNet"
    }
    metadata_props {
      key: "pkg.onnxscript.class_hierarchy"
      value: "[\'Qwen35CausalLMModel\', \'Qwen35TextModel\', \'Qwen35DecoderLayer\', \'GatedDeltaNet\']"
    }
    metadata_props {
      key: "pkg.onnxscript.name_scopes"
      value: "[\'\', \'model\', \'layers.1\', \'linear_attn\']"
    }
  }
  node {
    input: "v_model.layers.1.linear_attn.Neg_186"
    input: "v_model.layers.1.linear_attn.Softplus_184"
    output: "v_model.layers.1.linear_attn.Mul_187"
    name: "model/layers.1/linear_attn/Mul_node_187"
    op_type: "Mul"
    metadata_props {
      key: "namespace"
      value: ": Qwen35CausalLMModel/model: Qwen35TextModel/layers.1: Qwen35DecoderLayer/linear_attn: GatedDeltaNet"
    }
    metadata_props {
      key: "pkg.onnxscript.class_hierarchy"
      value: "[\'Qwen35CausalLMModel\', \'Qwen35TextModel\', \'Qwen35DecoderLayer\', \'GatedDeltaNet\']"
    }
    metadata_props {
      key: "pkg.onnxscript.name_scopes"
      value: "[\'\', \'model\', \'layers.1\', \'linear_attn\']"
    }
    metadata_props {
      key: "pkg.onnxscript.shape_inference_error"
      value: "Type of input 1 value v_model.layers.1.linear_attn.Softplus_184 of node model/layers.1/linear_attn/Mul_node_187 not known"
    }
  }
  node {
    input: "v_model.layers.1.linear_attn.Mul_178"
    output: "v_model.layers.1.linear_attn.Transpose_188"
    name: "model/layers.1/linear_attn/Transpose_node_188"
    op_type: "Transpose"
    attribute {
      name: "perm"
      ints: 0
      ints: 2
      ints: 1
      ints: 3
      type: INTS
    }
    metadata_props {
      key: "namespace"
      value: ": Qwen35CausalLMModel/model: Qwen35TextModel/layers.1: Qwen35DecoderLayer/linear_attn: GatedDeltaNet"
    }
    metadata_props {
      key: "pkg.onnxscript.class_hierarchy"
      value: "[\'Qwen35CausalLMModel\', \'Qwen35TextModel\', \'Qwen35DecoderLayer\', \'GatedDeltaNet\']"
    }
    metadata_props {
      key: "pkg.onnxscript.name_scopes"
      value: "[\'\', \'model\', \'layers.1\', \'linear_attn\']"
    }
    metadata_props {
      key: "pkg.onnxscript.shape_inference_error"
      value: "Type of input 0 value v_model.layers.1.linear_attn.Mul_178 of node model/layers.1/linear_attn/Transpose_node_188 not known"
    }
  }
  node {
    input: "v_model.layers.1.linear_attn.Mul_175"
    output: "v_model.layers.1.linear_attn.Transpose_189"
    name: "model/layers.1/linear_attn/Transpose_node_189"
    op_type: "Transpose"
    attribute {
      name: "perm"
      ints: 0
      ints: 2
      ints: 1
      ints: 3
      type: INTS
    }
    metadata_props {
      key: "namespace"
      value: ": Qwen35CausalLMModel/model: Qwen35TextModel/layers.1: Qwen35DecoderLayer/linear_attn: GatedDeltaNet"
    }
    metadata_props {
      key: "pkg.onnxscript.class_hierarchy"
      value: "[\'Qwen35CausalLMModel\', \'Qwen35TextModel\', \'Qwen35DecoderLayer\', \'GatedDeltaNet\']"
    }
    metadata_props {
      key: "pkg.onnxscript.name_scopes"
      value: "[\'\', \'model\', \'layers.1\', \'linear_attn\']"
    }
    metadata_props {
      key: "pkg.onnxscript.shape_inference_error"
      value: "Type of input 0 value v_model.layers.1.linear_attn.Mul_175 of node model/layers.1/linear_attn/Transpose_node_189 not known"
    }
  }
  node {
    input: "v_model.layers.1.linear_attn.Reshape_158"
    output: "v_model.layers.1.linear_attn.Transpose_190"
    name: "model/layers.1/linear_attn/Transpose_node_190"
    op_type: "Transpose"
    attribute {
      name: "perm"
      ints: 0
      ints: 2
      ints: 1
      ints: 3
      type: INTS
    }
    metadata_props {
      key: "namespace"
      value: ": Qwen35CausalLMModel/model: Qwen35TextModel/layers.1: Qwen35DecoderLayer/linear_attn: GatedDeltaNet"
    }
    metadata_props {
      key: "pkg.onnxscript.class_hierarchy"
      value: "[\'Qwen35CausalLMModel\', \'Qwen35TextModel\', \'Qwen35DecoderLayer\', \'GatedDeltaNet\']"
    }
    metadata_props {
      key: "pkg.onnxscript.name_scopes"
      value: "[\'\', \'model\', \'layers.1\', \'linear_attn\']"
    }
    metadata_props {
      key: "pkg.onnxscript.shape_inference_error"
      value: "Type of input 0 value v_model.layers.1.linear_attn.Reshape_158 of node model/layers.1/linear_attn/Transpose_node_190 not known"
    }
  }
  node {
    input: "v_model.layers.1.linear_attn.Sigmoid_179"
    output: "v_model.layers.1.linear_attn.Transpose_191"
    name: "model/layers.1/linear_attn/Transpose_node_191"
    op_type: "Transpose"
    attribute {
      name: "perm"
      ints: 0
      ints: 2
      ints: 1
      type: INTS
    }
    metadata_props {
      key: "namespace"
      value: ": Qwen35CausalLMModel/model: Qwen35TextModel/layers.1: Qwen35DecoderLayer/linear_attn: GatedDeltaNet"
    }
    metadata_props {
      key: "pkg.onnxscript.class_hierarchy"
      value: "[\'Qwen35CausalLMModel\', \'Qwen35TextModel\', \'Qwen35DecoderLayer\', \'GatedDeltaNet\']"
    }
    metadata_props {
      key: "pkg.onnxscript.name_scopes"
      value: "[\'\', \'model\', \'layers.1\', \'linear_attn\']"
    }
    metadata_props {
      key: "pkg.onnxscript.shape_inference_error"
      value: "Type of input 0 value v_model.layers.1.linear_attn.Sigmoid_179 of node model/layers.1/linear_attn/Transpose_node_191 not known"
    }
  }
  node {
    input: "v_model.layers.1.linear_attn.Mul_187"
    output: "v_model.layers.1.linear_attn.Transpose_192"
    name: "model/layers.1/linear_attn/Transpose_node_192"
    op_type: "Transpose"
    attribute {
      name: "perm"
      ints: 0
      ints: 2
      ints: 1
      type: INTS
    }
    metadata_props {
      key: "namespace"
      value: ": Qwen35CausalLMModel/model: Qwen35TextModel/layers.1: Qwen35DecoderLayer/linear_attn: GatedDeltaNet"
    }
    metadata_props {
      key: "pkg.onnxscript.class_hierarchy"
      value: "[\'Qwen35CausalLMModel\', \'Qwen35TextModel\', \'Qwen35DecoderLayer\', \'GatedDeltaNet\']"
    }
    metadata_props {
      key: "pkg.onnxscript.name_scopes"
      value: "[\'\', \'model\', \'layers.1\', \'linear_attn\']"
    }
    metadata_props {
      key: "pkg.onnxscript.shape_inference_error"
      value: "Type of input 0 value v_model.layers.1.linear_attn.Mul_187 of node model/layers.1/linear_attn/Transpose_node_192 not known"
    }
  }
  node {
    input: "v_model.layers.1.linear_attn.Transpose_188"
    input: "v_model.layers.1.linear_attn.Transpose_189"
    input: "v_model.layers.1.linear_attn.Transpose_190"
    input: "past_key_values.1.recurrent_state"
    input: "v_model.layers.1.linear_attn.Transpose_192"
    input: "v_model.layers.1.linear_attn.Transpose_191"
    output: "v_model.layers.1.linear_attn.LinearAttention_193_0"
    output: "present.1.recurrent_state"
    name: "model/layers.1/linear_attn/LinearAttention_node_193"
    op_type: "LinearAttention"
    attribute {
      name: "update_rule"
      s: "gated_delta"
      type: STRING
    }
    domain: "com.microsoft"
    metadata_props {
      key: "namespace"
      value: ": Qwen35CausalLMModel/model: Qwen35TextModel/layers.1: Qwen35DecoderLayer/linear_attn: GatedDeltaNet"
    }
    metadata_props {
      key: "pkg.onnxscript.class_hierarchy"
      value: "[\'Qwen35CausalLMModel\', \'Qwen35TextModel\', \'Qwen35DecoderLayer\', \'GatedDeltaNet\']"
    }
    metadata_props {
      key: "pkg.onnxscript.name_scopes"
      value: "[\'\', \'model\', \'layers.1\', \'linear_attn\']"
    }
    metadata_props {
      key: "pkg.onnxscript.shape_inference_error"
      value: "Type of input 0 value v_model.layers.1.linear_attn.Transpose_188 of node model/layers.1/linear_attn/LinearAttention_node_193 not known"
    }
  }
  node {
    input: "v_model.layers.1.linear_attn.LinearAttention_193_0"
    output: "v_model.layers.1.linear_attn.Transpose_194"
    name: "model/layers.1/linear_attn/Transpose_node_194"
    op_type: "Transpose"
    attribute {
      name: "perm"
      ints: 0
      ints: 2
      ints: 1
      ints: 3
      type: INTS
    }
    metadata_props {
      key: "namespace"
      value: ": Qwen35CausalLMModel/model: Qwen35TextModel/layers.1: Qwen35DecoderLayer/linear_attn: GatedDeltaNet"
    }
    metadata_props {
      key: "pkg.onnxscript.class_hierarchy"
      value: "[\'Qwen35CausalLMModel\', \'Qwen35TextModel\', \'Qwen35DecoderLayer\', \'GatedDeltaNet\']"
    }
    metadata_props {
      key: "pkg.onnxscript.name_scopes"
      value: "[\'\', \'model\', \'layers.1\', \'linear_attn\']"
    }
    metadata_props {
      key: "pkg.onnxscript.shape_inference_error"
      value: "Type of input 0 value v_model.layers.1.linear_attn.LinearAttention_193_0 of node model/layers.1/linear_attn/Transpose_node_194 not known"
    }
  }
  node {
    input: "v_model.layers.1.linear_attn.Transpose_194"
    input: "v_model.layers.0.linear_attn.Constant_104"
    output: "v_model.layers.1.linear_attn.Reshape_196"
    name: "model/layers.1/linear_attn/Reshape_node_196"
    op_type: "Reshape"
    metadata_props {
      key: "namespace"
…
      }
    }
  }
  value_info {
    name: "v_model.layers.21.linear_attn.conv1d.Expand_1699"
    type {
      tensor_type {
        elem_type: 10
        shape {
          dim {
            dim_value: 6144
          }
        }
      }
    }
  }
  value_info {
    name: "v_model.layers.21.linear_attn.Cast_1736"
    type {
      tensor_type {
        elem_type: 1
        shape {
          dim {
            dim_value: 16
          }
        }
      }
    }
  }
  value_info {
    name: "v_model.layers.21.linear_attn.Cast_1737"
    type {
      tensor_type {
        elem_type: 1
        shape {
          dim {
            dim_value: 16
          }
        }
      }
    }
  }
  value_info {
    name: "v_model.layers.21.linear_attn.Exp_1740"
    type {
      tensor_type {
        elem_type: 1
        shape {
          dim {
            dim_value: 16
          }
        }
      }
    }
  }
  value_info {
    name: "v_model.layers.21.linear_attn.Neg_1741"
    type {
      tensor_type {
        elem_type: 1
        shape {
          dim {
            dim_value: 16
          }
        }
      }
    }
  }
  value_info {
    name: "v_model.layers.21.linear_attn.out_proj.Transpose_1760"
    type {
      tensor_type {
        elem_type: 10
        shape {
          dim {
            dim_value: 2048
          }
          dim {
            dim_value: 2048
          }
        }
      }
    }
  }
  value_info {
    name: "v_model.layers.21.post_attention_layernorm.Add_1763"
    type {
      tensor_type {
        elem_type: 10
        shape {
          dim {
            dim_value: 2048
          }
        }
      }
    }
  }
  value_info {
    name: "v_model.layers.21.mlp.gate_proj.Transpose_1765"
    type {
      tensor_type {
        elem_type: 10
        shape {
          dim {
            dim_value: 2048
          }
          dim {
            dim_value: 6144
          }
        }
      }
    }
  }
  value_info {
    name: "v_model.layers.21.mlp.up_proj.Transpose_1769"
    type {
      tensor_type {
        elem_type: 10
        shape {
          dim {
            dim_value: 2048
          }
          dim {
            dim_value: 6144
          }
        }
      }
    }
  }
  value_info {
    name: "v_model.layers.21.mlp.down_proj.Transpose_1772"
    type {
      tensor_type {
        elem_type: 10
        shape {
          dim {
            dim_value: 6144
          }
          dim {
            dim_value: 2048
          }
        }
      }
    }
  }
  value_info {
    name: "v_model.layers.22.input_layernorm.Add_1775"
    type {
      tensor_type {
        elem_type: 10
        shape {
          dim {
            dim_value: 2048
          }
        }
      }
    }
  }
  value_info {
    name: "v_model.layers.22.linear_attn.in_proj_qkv.Transpose_1778"
    type {
      tensor_type {
        elem_type: 10
        shape {
          dim {
            dim_value: 2048
          }
          dim {
            dim_value: 6144
          }
        }
      }
    }
  }
  value_info {
    name: "v_model.layers.22.linear_attn.in_proj_z.Transpose_1780"
    type {
      tensor_type {
        elem_type: 10
        shape {
          dim {
            dim_value: 2048
          }
          dim {
            dim_value: 2048
          }
        }
      }
    }
  }
  value_info {
    name: "v_model.layers.22.linear_attn.in_proj_b.Transpose_1782"
    type {
      tensor_type {
        elem_type: 10
        shape {
          dim {
            dim_value: 2048
          }
          dim {
            dim_value: 16
          }
        }
      }
    }
  }
  value_info {
    name: "v_model.layers.22.linear_attn.in_proj_a.Transpose_1784"
    type {
      tensor_type {
        elem_type: 10
        shape {
          dim {
            dim_value: 2048
          }
          dim {
            dim_value: 16
          }
        }
      }
    }
  }
  value_info {
    name: "v_model.layers.22.linear_attn.conv1d.CastLike_1788"
    type {
      tensor_type {
        elem_type: 10
        shape {
        }
      }
    }
  }
  value_info {
    name: "v_model.layers.22.linear_attn.conv1d.Expand_1790"
    type {
      tensor_type {
        elem_type: 10
        shape {
          dim {
            dim_value: 6144
          }
        }
      }
    }
  }
  value_info {
    name: "v_model.layers.22.linear_attn.Cast_1827"
    type {
      tensor_type {
        elem_type: 1
        shape {
          dim {
            dim_value: 16
          }
        }
      }
    }
  }
  value_info {
    name: "v_model.layers.22.linear_attn.Cast_1828"
    type {
      tensor_type {
        elem_type: 1
        shape {
          dim {
            dim_value: 16
          }
        }
      }
    }
  }
  value_info {
    name: "v_model.layers.22.linear_attn.Exp_1831"
    type {
      tensor_type {
        elem_type: 1
        shape {
          dim {
            dim_value: 16
          }
        }
      }
    }
  }
  value_info {
    name: "v_model.layers.22.linear_attn.Neg_1832"
    type {
      tensor_type {
        elem_type: 1
        shape {
          dim {
            dim_value: 16
          }
        }
      }
    }
  }
  value_info {
    name: "v_model.layers.22.linear_attn.out_proj.Transpose_1851"
    type {
      tensor_type {
        elem_type: 10
        shape {
          dim {
            dim_value: 2048
          }
          dim {
            dim_value: 2048
          }
        }
      }
    }
  }
  value_info {
    name: "v_model.layers.22.post_attention_layernorm.Add_1854"
    type {
      tensor_type {
        elem_type: 10
        shape {
          dim {
            dim_value: 2048
          }
        }
      }
    }
  }
  value_info {
    name: "v_model.layers.22.mlp.gate_proj.Transpose_1856"
    type {
      tensor_type {
        elem_type: 10
        shape {
          dim {
            dim_value: 2048
          }
          dim {
            dim_value: 6144
          }
        }
      }
    }
  }
  value_info {
    name: "v_model.layers.22.mlp.up_proj.Transpose_1860"
    type {
      tensor_type {
        elem_type: 10
        shape {
          dim {
            dim_value: 2048
          }
          dim {
            dim_value: 6144
          }
        }
      }
    }
  }
  value_info {
    name: "v_model.layers.22.mlp.down_proj.Transpose_1863"
    type {
      tensor_type {
        elem_type: 10
        shape {
          dim {
            dim_value: 6144
          }
          dim {
            dim_value: 2048
          }
        }
      }
    }
  }
  value_info {
    name: "v_model.layers.23.input_layernorm.Add_1866"
    type {
      tensor_type {
        elem_type: 10
        shape {
          dim {
            dim_value: 2048
          }
        }
      }
    }
  }
  value_info {
    name: "v_model.layers.23.self_attn.q_proj.Transpose_1868"
    type {
      tensor_type {
        elem_type: 10
        shape {
          dim {
            dim_value: 2048
          }
          dim {
            dim_value: 4096
          }
        }
      }
    }
  }
  value_info {
    name: "v_model.layers.23.self_attn.k_proj.Transpose_1873"
    type {
      tensor_type {
        elem_type: 10
        shape {
          dim {
            dim_value: 2048
          }
          dim {
            dim_value: 512
          }
        }
      }
    }
  }
  value_info {
    name: "v_model.layers.23.self_attn.v_proj.Transpose_1875"
    type {
      tensor_type {
        elem_type: 10
        shape {
          dim {
            dim_value: 2048
          }
          dim {
            dim_value: 512
          }
        }
      }
    }
  }
  value_info {
    name: "v_model.layers.23.self_attn.q_norm.Add_1878"
    type {
      tensor_type {
        elem_type: 10
        shape {
          dim {
            dim_value: 256
          }
        }
      }
    }
  }
  value_info {
    name: "v_model.layers.23.self_attn.k_norm.Add_1880"
    type {
      tensor_type {
        elem_type: 10
        shape {
          dim {
            dim_value: 256
          }
        }
      }
    }
  }
  value_info {
    name: "v_model.layers.23.self_attn.o_proj.Transpose_1889"
    type {
      tensor_type {
        elem_type: 10
        shape {
          dim {
            dim_value: 2048
          }
          dim {
            dim_value: 2048
          }
        }
      }
    }
  }
  value_info {
    name: "v_model.layers.23.post_attention_layernorm.Add_1892"
    type {
      tensor_type {
        elem_type: 10
        shape {
          dim {
            dim_value: 2048
          }
        }
      }
    }
  }
  value_info {
    name: "v_model.layers.23.mlp.gate_proj.Transpose_1894"
    type {
      tensor_type {
        elem_type: 10
        shape {
          dim {
            dim_value: 2048
          }
          dim {
            dim_value: 6144
          }
        }
      }
    }
  }
  value_info {
    name: "v_model.layers.23.mlp.up_proj.Transpose_1898"
    type {
      tensor_type {
        elem_type: 10
        shape {
          dim {
            dim_value: 2048
          }
          dim {
            dim_value: 6144
          }
        }
      }
    }
  }
  value_info {
    name: "v_model.layers.23.mlp.down_proj.Transpose_1901"
    type {
      tensor_type {
        elem_type: 10
        shape {
          dim {
            dim_value: 6144
          }
          dim {
            dim_value: 2048
          }
        }
      }
    }
  }
  value_info {
    name: "v_model.norm.Add_1904"
    type {
      tensor_type {
        elem_type: 10
        shape {
          dim {
            dim_value: 2048
          }
        }
      }
    }
  }
  value_info {
    name: "v_lm_head.Transpose_1906"
    type {
      tensor_type {
        elem_type: 10
        shape {
          dim {
            dim_value: 2048
          }
          dim {
            dim_value: 248320
          }
        }
      }
    }
  }
}
opset_import {
  domain: ""
  version: 24
}
functions {
  name: "CausalConv1DWithState"
  input: "input"
  input: "weight"
  input: "bias"
  input: "conv_state"
  output: "output"
  output: "present_state"
  node {
    input: "conv_state"
    input: "input"
    output: "v_Concat_0"
    name: "Concat_node_0"
    op_type: "Concat"
    attribute {
      name: "axis"
      i: 2
      type: INT
    }
    metadata_props {
      key: "namespace"
      value: ""
    }
    metadata_props {
      key: "pkg.onnxscript.class_hierarchy"
      value: "[]"
    }
    metadata_props {
      key: "pkg.onnxscript.name_scopes"
      value: "[]"
    }
    metadata_props {
      key: "pkg.onnxscript.shape_inference_error"
      value: "Type of input 0 value conv_state of node Concat_node_0 not known"
    }
  }
  node {
    input: "v_Concat_0"
    output: "v_Shape_1"
    name: "Shape_node_1"
    op_type: "Shape"
    metadata_props {
      key: "namespace"
      value: ""
    }
    metadata_props {
      key: "pkg.onnxscript.class_hierarchy"
      value: "[]"
    }
    metadata_props {
      key: "pkg.onnxscript.name_scopes"
      value: "[]"
    }
    metadata_props {
      key: "pkg.onnxscript.shape_inference_error"
      value: "Type of input 0 value v_Concat_0 of node Shape_node_1 not known"
    }
  }
  node {
    output: "v_Constant_2"
    name: "Constant_node_2"
    op_type: "Constant"
    attribute {
      name: "value_int"
      i: 2
      type: INT
    }
    metadata_props {
      key: "namespace"
      value: ""
    }
    metadata_props {
      key: "pkg.onnxscript.class_hierarchy"
      value: "[]"
    }
    metadata_props {
      key: "pkg.onnxscript.name_scopes"
      value: "[]"
    }
  }
  node {
    input: "v_Shape_1"
    input: "v_Constant_2"
    output: "v_Gather_3"
    name: "Gather_node_3"
    op_type: "Gather"
    attribute {
      name: "axis"
      i: 0
      type: INT
    }
    metadata_props {
      key: "namespace"
      value: ""
    }
    metadata_props {
      key: "pkg.onnxscript.class_hierarchy"
      value: "[]"
    }
    metadata_props {
      key: "pkg.onnxscript.name_scopes"
      value: "[]"
    }
    metadata_props {
      key: "pkg.onnxscript.shape_inference_error"
      value: "Type of input 0 value v_Shape_1 of node Gather_node_3 not known"
    }
  }
  node {
    output: "v_Constant_4"
    name: "Constant_node_4"
    op_type: "Constant"
    attribute {
      name: "value_int"
      i: 3
      type: INT
    }
    metadata_props {
      key: "namespace"
      value: ""
    }
    metadata_props {
      key: "pkg.onnxscript.class_hierarchy"
      value: "[]"
    }
    metadata_props {
      key: "pkg.onnxscript.name_scopes"
      value: "[]"
    }
  }
  node {
    input: "v_Gather_3"
    input: "v_Constant_4"
    output: "v_Sub_5"
    name: "Sub_node_5"
    op_type: "Sub"
    metadata_props {
      key: "namespace"
      value: ""
    }
    metadata_props {
      key: "pkg.onnxscript.class_hierarchy"
      value: "[]"
    }
    metadata_props {
      key: "pkg.onnxscript.name_scopes"
      value: "[]"
    }
    metadata_props {
      key: "pkg.onnxscript.shape_inference_error"
      value: "Type of input 0 value v_Gather_3 of node Sub_node_5 not known"
    }
  }
  node {
    output: "v_Constant_6"
    name: "Constant_node_6"
    op_type: "Constant"
    attribute {
      name: "value_ints"
      ints: 1
      type: INTS
    }
    metadata_props {
      key: "namespace"
      value: ""
    }
    metadata_props {
      key: "pkg.onnxscript.class_hierarchy"
      value: "[]"
    }
    metadata_props {
      key: "pkg.onnxscript.name_scopes"
      value: "[]"
    }
  }
  node {
    input: "v_Sub_5"
    input: "v_Constant_6"
    output: "v_Reshape_7"
    name: "Reshape_node_7"
    op_type: "Reshape"
    metadata_props {
      key: "namespace"
      value: ""
    }
    metadata_props {
      key: "pkg.onnxscript.class_hierarchy"
      value: "[]"
    }
    metadata_props {
      key: "pkg.onnxscript.name_scopes"
      value: "[]"
    }
    metadata_props {
      key: "pkg.onnxscript.shape_inference_error"
      value: "Type of input 0 value v_Sub_5 of node Reshape_node_7 not known"
    }
  }
  node {
    output: "v_Constant_8"
    name: "Constant_node_8"
    op_type: "Constant"
    attribute {
      name: "value_ints"
      ints: 1
      type: INTS
    }
    metadata_props {
      key: "namespace"
      value: ""
    }
    metadata_props {
      key: "pkg.onnxscript.class_hierarchy"
      value: "[]"
    }
    metadata_props {
      key: "pkg.onnxscript.name_scopes"
      value: "[]"
    }
  }
  node {
    input: "v_Gather_3"
    input: "v_Constant_8"
    output: "v_Reshape_9"
    name: "Reshape_node_9"
    op_type: "Reshape"
    metadata_props {
      key: "namespace"
      value: ""
    }
    metadata_props {
      key: "pkg.onnxscript.class_hierarchy"
      value: "[]"
    }
    metadata_props {
      key: "pkg.onnxscript.name_scopes"
      value: "[]"
    }
    metadata_props {
      key: "pkg.onnxscript.shape_inference_error"
      value: "Type of input 0 value v_Gather_3 of node Reshape_node_9 not known"
    }
  }
  node {
    output: "v_Constant_10"
    name: "Constant_node_10"
    op_type: "Constant"
    attribute {
      name: "value_ints"
      ints: 2
      type: INTS
    }
    metadata_props {
      key: "namespace"
      value: ""
    }
    metadata_props {
      key: "pkg.onnxscript.class_hierarchy"
      value: "[]"
    }
    metadata_props {
      key: "pkg.onnxscript.name_scopes"
      value: "[]"
    }
  }
  node {
    input: "v_Concat_0"
    input: "v_Reshape_7"
    input: "v_Reshape_9"
    input: "v_Constant_10"
    output: "present_state"
    name: "Slice_node_11"
    op_type: "Slice"
    metadata_props {
      key: "namespace"
      value: ""
    }
    metadata_props {
      key: "pkg.onnxscript.class_hierarchy"
      value: "[]"
    }
    metadata_props {
      key: "pkg.onnxscript.name_scopes"
      value: "[]"
    }
    metadata_props {
      key: "pkg.onnxscript.shape_inference_error"
      value: "Type of input 0 value v_Concat_0 of node Slice_node_11 not known"
    }
  }
  node {
    input: "v_Concat_0"
    input: "weight"
    output: "v_Conv_12"
    name: "Conv_node_12"
    op_type: "Conv"
    attribute {
      name: "group"
      i: 6144
      type: INT
    }
    attribute {
      name: "pads"
      ints: 0
      ints: 0
      type: INTS
    }
    metadata_props {
      key: "namespace"
      value: ""
    }
    metadata_props {
      key: "pkg.onnxscript.class_hierarchy"
      value: "[]"
    }
    metadata_props {
      key: "pkg.onnxscript.name_scopes"
      value: "[]"
    }
    metadata_props {
      key: "pkg.onnxscript.shape_inference_error"
      value: "Type of input 0 value v_Concat_0 of node Conv_node_12 not known"
    }
  }
  node {
    output: "v_Constant_13"
    name: "Constant_node_13"
    op_type: "Constant"
    attribute {
      name: "value_ints"
      ints: 1
      ints: -1
      ints: 1
      type: INTS
    }
    metadata_props {
      key: "namespace"
      value: ""
    }
    metadata_props {
      key: "pkg.onnxscript.class_hierarchy"
      value: "[]"
    }
    metadata_props {
      key: "pkg.onnxscript.name_scopes"
      value: "[]"
    }
  }
  node {
    input: "bias"
    input: "v_Constant_13"
    output: "v_Reshape_14"
    name: "Reshape_node_14"
    op_type: "Reshape"
    metadata_props {
      key: "namespace"
      value: ""
    }
    metadata_props {
      key: "pkg.onnxscript.class_hierarchy"
      value: "[]"
    }
    metadata_props {
      key: "pkg.onnxscript.name_scopes"
      value: "[]"
    }
    metadata_props {
      key: "pkg.onnxscript.shape_inference_error"
      value: "Type of input 0 value bias of node Reshape_node_14 not known"
    }
  }
  node {
    input: "v_Conv_12"
    input: "v_Reshape_14"
    output: "v_Add_15"
    name: "Add_node_15"
    op_type: "Add"
    metadata_props {
      key: "namespace"
      value: ""
    }
    metadata_props {
      key: "pkg.onnxscript.class_hierarchy"
      value: "[]"
    }
    metadata_props {
      key: "pkg.onnxscript.name_scopes"
      value: "[]"
    }
    metadata_props {
      key: "pkg.onnxscript.shape_inference_error"
      value: "Type of input 0 value v_Conv_12 of node Add_node_15 not known"
    }
  }
  node {
    input: "v_Add_15"
    output: "v_Sigmoid_16"
    name: "Sigmoid_node_16"
    op_type: "Sigmoid"
    metadata_props {
      key: "namespace"
      value: ""
    }
    metadata_props {
      key: "pkg.onnxscript.class_hierarchy"
      value: "[]"
    }
    metadata_props {
      key: "pkg.onnxscript.name_scopes"
      value: "[]"
    }
    metadata_props {
      key: "pkg.onnxscript.shape_inference_error"
      value: "Type of input 0 value v_Add_15 of node Sigmoid_node_16 not known"
    }
  }
  node {
    input: "v_Add_15"
    input: "v_Sigmoid_16"
    output: "output"
    name: "Mul_node_17"
    op_type: "Mul"
    metadata_props {
      key: "namespace"
      value: ""
    }
    metadata_props {
      key: "pkg.onnxscript.class_hierarchy"
      value: "[]"
    }
    metadata_props {
      key: "pkg.onnxscript.name_scopes"
      value: "[]"
    }
    metadata_props {
      key: "pkg.onnxscript.shape_inference_error"
      value: "Type of input 0 value v_Add_15 of node Mul_node_17 not known"
    }
  }
  opset_import {
    domain: ""
    version: 24
  }
  domain: "com.microsoft"
  attribute_proto {
    name: "activation"
    s: "silu"
    type: STRING
  }
  value_info {
    name: "v_Constant_2"
    type {
      tensor_type {
        elem_type: 7
        shape {
        }
      }
    }
  }
  value_info {
    name: "v_Constant_4"
    type {
      tensor_type {
        elem_type: 7
        shape {
        }
      }
    }
  }
  value_info {
    name: "v_Constant_6"
    type {
      tensor_type {
        elem_type: 7
        shape {
          dim {
            dim_value: 1
          }
        }
      }
    }
  }
  value_info {
    name: "v_Constant_8"
    type {
      tensor_type {
        elem_type: 7
        shape {
          dim {
            dim_value: 1
          }
        }
      }
    }
  }
  value_info {
    name: "v_Constant_10"
    type {
      tensor_type {
        elem_type: 7
        shape {
          dim {
            dim_value: 1
          }
        }
      }
    }
  }
  value_info {
    name: "v_Constant_13"
    type {
      tensor_type {
        elem_type: 7
        shape {
          dim {
            dim_value: 3
          }
        }
      }
    }
  }
}
functions {
  name: "LinearAttention"
  input: "query"
  input: "key"
  input: "value"
  input: "past_state"
  input: "decay"
  input: "beta"
  output: "output"
  output: "present_state"
  node {
    input: "query"
    output: "v_Cast_0"
    name: "Cast_node_0"
    op_type: "Cast"
    attribute {
      name: "to"
      i: 1
      type: INT
    }
    metadata_props {
      key: "namespace"
      value: ""
    }
    metadata_props {
      key: "pkg.onnxscript.class_hierarchy"
      value: "[]"
    }
    metadata_props {
      key: "pkg.onnxscript.name_scopes"
      value: "[]"
    }
    metadata_props {
      key: "pkg.onnxscript.shape_inference_error"
      value: "Type of input 0 value query of node Cast_node_0 not known"
    }
  }
  node {
    input: "key"
    output: "v_Cast_1"
    name: "Cast_node_1"
    op_type: "Cast"
    attribute {
      name: "to"
      i: 1
      type: INT
    }
    metadata_props {
      key: "namespace"
      value: ""
    }
    metadata_props {
      key: "pkg.onnxscript.class_hierarchy"
      value: "[]"
    }
    metadata_props {
      key: "pkg.onnxscript.name_scopes"
      value: "[]"
    }
    metadata_props {
      key: "pkg.onnxscript.shape_inference_error"
      value: "Type of input 0 value key of node Cast_node_1 not known"
    }
  }
  node {
    input: "value"
    output: "v_Cast_2"
    name: "Cast_node_2"
    op_type: "Cast"
    attribute {
      name: "to"
      i: 1
      type: INT
    }
    metadata_props {
      key: "namespace"
      value: ""
    }
    metadata_props {
      key: "pkg.onnxscript.class_hierarchy"
      value: "[]"
    }
    metadata_props {
      key: "pkg.onnxscript.name_scopes"
      value: "[]"
    }
    metadata_props {
      key: "pkg.onnxscript.shape_inference_error"
      value: "Type of input 0 value value of node Cast_node_2 not known"
    }
  }
  node {
    input: "past_state"
    output: "v_Cast_3"
    name: "Cast_node_3"
    op_type: "Cast"
    attribute {
      name: "to"
      i: 1
      type: INT
    }
    metadata_props {
      key: "namespace"
      value: ""
    }
    metadata_props {
      key: "pkg.onnxscript.class_hierarchy"
      value: "[]"
    }
    metadata_props {
      key: "pkg.onnxscript.name_scopes"
      value: "[]"
    }
    metadata_props {
      key: "pkg.onnxscript.shape_inference_error"
      value: "Type of input 0 value past_state of node Cast_node_3 not known"
    }
  }
  node {
    input: "decay"
    output: "v_Cast_4"
    name: "Cast_node_4"
    op_type: "Cast"
    attribute {
      name: "to"
      i: 1
      type: INT
    }
    metadata_props {
      key: "namespace"
      value: ""
    }
    metadata_props {
      key: "pkg.onnxscript.class_hierarchy"
      value: "[]"
    }
    metadata_props {
      key: "pkg.onnxscript.name_scopes"
      value: "[]"
    }
  }
  node {
    input: "beta"
    output: "v_Cast_5"
    name: "Cast_node_5"
    op_type: "Cast"
    attribute {
      name: "to"
      i: 1
      type: INT
    }
    metadata_props {
      key: "namespace"
      value: ""
    }
    metadata_props {
      key: "pkg.onnxscript.class_hierarchy"
      value: "[]"
    }
    metadata_props {
      key: "pkg.onnxscript.name_scopes"
      value: "[]"
    }
    metadata_props {
      key: "pkg.onnxscript.shape_inference_error"
      value: "Type of input 0 value beta of node Cast_node_5 not known"
    }
  }
  node {
    input: "v_Cast_0"
    output: "v_Transpose_6"
    name: "Transpose_node_6"
    op_type: "Transpose"
    attribute {
      name: "perm"
      ints: 2
      ints: 0
      ints: 1
      ints: 3
      type: INTS
    }
    metadata_props {
      key: "namespace"
      value: ""
    }
    metadata_props {
      key: "pkg.onnxscript.class_hierarchy"
      value: "[]"
    }
    metadata_props {
      key: "pkg.onnxscript.name_scopes"
      value: "[]"
    }
    metadata_props {
      key: "pkg.onnxscript.shape_inference_error"
      value: "Type of input 0 value v_Cast_0 of node Transpose_node_6 not known"
    }
  }
  node {
    input: "v_Cast_1"
    output: "v_Transpose_7"
    name: "Transpose_node_7"
    op_type: "Transpose"
    attribute {
      name: "perm"
      ints: 2
      ints: 0
      ints: 1
      ints: 3
      type: INTS
    }
    metadata_props {
      key: "namespace"
      value: ""
    }
    metadata_props {
      key: "pkg.onnxscript.class_hierarchy"
      value: "[]"
    }
    metadata_props {
      key: "pkg.onnxscript.name_scopes"
      value: "[]"
    }
    metadata_props {
      key: "pkg.onnxscript.shape_inference_error"
      value: "Type of input 0 value v_Cast_1 of node Transpose_node_7 not known"
    }
  }
  node {
    input: "v_Cast_2"
    output: "v_Transpose_8"
    name: "Transpose_node_8"
    op_type: "Transpose"
    attribute {
      name: "perm"
      ints: 2
      ints: 0
      ints: 1
      ints: 3
      type: INTS
    }
    metadata_props {
      key: "namespace"
      value: ""
    }
    metadata_props {
      key: "pkg.onnxscript.class_hierarchy"
      value: "[]"
    }
    metadata_props {
      key: "pkg.onnxscript.name_scopes"
      value: "[]"
    }
    metadata_props {
      key: "pkg.onnxscript.shape_inference_error"
      value: "Type of input 0 value v_Cast_2 of node Transpose_node_8 not known"
    }
  }
  node {
    input: "v_Cast_4"
    output: "v_Transpose_9"
    name: "Transpose_node_9"
    op_type: "Transpose"
    attribute {
      name: "perm"
      ints: 2
      ints: 0
      ints: 1
      type: INTS
    }
    metadata_props {
      key: "namespace"
      value: ""
    }
    metadata_props {
      key: "pkg.onnxscript.class_hierarchy"
      value: "[]"
    }
    metadata_props {
      key: "pkg.onnxscript.name_scopes"
      value: "[]"
    }
  }
  node {
    input: "v_Cast_5"
    output: "v_Transpose_10"
    name: "Transpose_node_10"
    op_type: "Transpose"
    attribute {
      name: "perm"
      ints: 2
      ints: 0
      ints: 1
      type: INTS
    }
    metadata_props {
      key: "namespace"
      value: ""
    }
    metadata_props {
      key: "pkg.onnxscript.class_hierarchy"
      value: "[]"
    }
    metadata_props {
      key: "pkg.onnxscript.name_scopes"
      value: "[]"
    }
    metadata_props {
      key: "pkg.onnxscript.shape_inference_error"
      value: "Type of input 0 value v_Cast_5 of node Transpose_node_10 not known"
    }
  }
  node {
    input: "v_Cast_3"
    input: "v_Transpose_6"
    input: "v_Transpose_7"
    input: "v_Transpose_8"
    input: "v_Transpose_9"
    input: "v_Transpose_10"
    output: "v_Scan_11_0"
    output: "v_Scan_11_1"
    name: "Scan_node_11"
    op_type: "Scan"
    attribute {
      name: "num_scan_inputs"
      i: 5
      type: INT
    }
    attribute {
      name: "body"
      g {
        node {
          output: "dn_v_Constant_0"
          name: "dn_Constant_node_0"
          op_type: "Constant"
          attribute {
            name: "value_ints"
            ints: -2
            type: INTS
          }
          metadata_props {
            key: "namespace"
            value: ""
          }
          metadata_props {
            key: "pkg.onnxscript.class_hierarchy"
            value: "[]"
          }
          metadata_props {
            key: "pkg.onnxscript.name_scopes"
            value: "[]"
          }
        }
        node {
          output: "dn_v_Constant_1"
          name: "dn_Constant_node_1"
          op_type: "Constant"
          attribute {
            name: "value_ints"
            ints: -1
            type: INTS
          }
          metadata_props {
            key: "namespace"
            value: ""
          }
          metadata_props {
            key: "pkg.onnxscript.class_hierarchy"
            value: "[]"
          }
          metadata_props {
            key: "pkg.onnxscript.name_scopes"
            value: "[]"
          }
        }
        node {
          output: "dn_v_Constant_2"
          name: "dn_Constant_node_2"
          op_type: "Constant"
          attribute {
            name: "value_ints"
            ints: 2
            ints: 3
            type: INTS
          }
          metadata_props {
            key: "namespace"
            value: ""
          }
          metadata_props {
            key: "pkg.onnxscript.class_hierarchy"
            value: "[]"
          }
          metadata_props {
            key: "pkg.onnxscript.name_scopes"
            value: "[]"
          }
        }
        node {
          input: "decay_t"
          input: "dn_v_Constant_2"
          output: "dn_v_Unsqueeze_3"
          name: "dn_Unsqueeze_node_3"
          op_type: "Unsqueeze"
          metadata_props {
            key: "namespace"
            value: ""
          }
          metadata_props {
            key: "pkg.onnxscript.class_hierarchy"
            value: "[]"
          }
          metadata_props {
            key: "pkg.onnxscript.name_scopes"
            value: "[]"
          }
        }
        node {
          input: "dn_v_Unsqueeze_3"
          output: "dn_v_Exp_4"
          name: "dn_Exp_node_4"
          op_type: "Exp"
          metadata_props {
            key: "namespace"
            value: ""
          }
          metadata_props {
            key: "pkg.onnxscript.class_hierarchy"
            value: "[]"
          }
          metadata_props {
            key: "pkg.onnxscript.name_scopes"
            value: "[]"
          }
        }
        node {
          input: "state"
          input: "dn_v_Exp_4"
          output: "dn_v_Mul_5"
          name: "dn_Mul_node_5"
          op_type: "Mul"
          metadata_props {
            key: "namespace"
            value: ""
          }
          metadata_props {
            key: "pkg.onnxscript.class_hierarchy"
            value: "[]"
          }
          metadata_props {
            key: "pkg.onnxscript.name_scopes"
            value: "[]"
          }
        }
        node {
          input: "k_t"
          input: "dn_v_Constant_0"
          output: "dn_v_Unsqueeze_6"
          name: "dn_Unsqueeze_node_6"
          op_type: "Unsqueeze"
          metadata_props {
            key: "namespace"
            value: ""
          }
          metadata_props {
            key: "pkg.onnxscript.class_hierarchy"
            value: "[]"
          }
          metadata_props {
            key: "pkg.onnxscript.name_scopes"
            value: "[]"
          }
        }
        node {
          input: "dn_v_Unsqueeze_6"
          input: "dn_v_Mul_5"
          output: "dn_v_MatMul_7"
          name: "dn_MatMul_node_7"
          op_type: "MatMul"
          metadata_props {
            key: "namespace"
            value: ""
          }
          metadata_props {
            key: "pkg.onnxscript.class_hierarchy"
            value: "[]"
          }
          metadata_props {
            key: "pkg.onnxscript.name_scopes"
            value: "[]"
          }
        }
        node {
          input: "dn_v_MatMul_7"
          input: "dn_v_Constant_0"
          output: "dn_v_Squeeze_8"
          name: "dn_Squeeze_node_8"
          op_type: "Squeeze"
          metadata_props {
            key: "namespace"
            value: ""
          }
          metadata_props {
            key: "pkg.onnxscript.class_hierarchy"
            value: "[]"
          }
          metadata_props {
            key: "pkg.onnxscript.name_scopes"
            value: "[]"
          }
        }
        node {
          input: "v_t"
          input: "dn_v_Squeeze_8"
          output: "dn_v_Sub_9"
          name: "dn_Sub_node_9"
          op_type: "Sub"
          metadata_props {
            key: "namespace"
            value: ""
          }
          metadata_props {
            key: "pkg.onnxscript.class_hierarchy"
            value: "[]"
          }
          metadata_props {
            key: "pkg.onnxscript.name_scopes"
            value: "[]"
          }
        }
        node {
          input: "beta_t"
          input: "dn_v_Constant_1"
          output: "dn_v_Unsqueeze_10"
          name: "dn_Unsqueeze_node_10"
          op_type: "Unsqueeze"
          metadata_props {
            key: "namespace"
            value: ""
          }
          metadata_props {
            key: "pkg.onnxscript.class_hierarchy"
            value: "[]"
          }
          metadata_props {
            key: "pkg.onnxscript.name_scopes"
            value: "[]"
          }
        }
        node {
          input: "dn_v_Sub_9"
          input: "dn_v_Unsqueeze_10"
          output: "dn_v_Mul_11"
          name: "dn_Mul_node_11"
          op_type: "Mul"
          metadata_props {
            key: "namespace"
            value: ""
          }
          metadata_props {
            key: "pkg.onnxscript.class_hierarchy"
            value: "[]"
          }
          metadata_props {
            key: "pkg.onnxscript.name_scopes"
            value: "[]"
          }
        }
        node {
          input: "k_t"
          input: "dn_v_Constant_1"
          output: "dn_v_Unsqueeze_12"
          name: "dn_Unsqueeze_node_12"
          op_type: "Unsqueeze"
          metadata_props {
            key: "namespace"
            value: ""
          }
          metadata_props {
            key: "pkg.onnxscript.class_hierarchy"
            value: "[]"
          }
          metadata_props {
            key: "pkg.onnxscript.name_scopes"
            value: "[]"
          }
        }
        node {
          input: "dn_v_Mul_11"
          input: "dn_v_Constant_0"
          output: "dn_v_Unsqueeze_13"
          name: "dn_Unsqueeze_node_13"
          op_type: "Unsqueeze"
          metadata_props {
            key: "namespace"
            value: ""
          }
          metadata_props {
            key: "pkg.onnxscript.class_hierarchy"
            value: "[]"
          }
          metadata_props {
            key: "pkg.onnxscript.name_scopes"
            value: "[]"
          }
        }
        node {
          input: "dn_v_Unsqueeze_12"
          input: "dn_v_Unsqueeze_13"
          output: "dn_v_MatMul_14"
          name: "dn_MatMul_node_14"
          op_type: "MatMul"
          metadata_props {
            key: "namespace"
            value: ""
          }
          metadata_props {
            key: "pkg.onnxscript.class_hierarchy"
            value: "[]"
          }
          metadata_props {
            key: "pkg.onnxscript.name_scopes"
            value: "[]"
          }
        }
        node {
          input: "dn_v_Mul_5"
          input: "dn_v_MatMul_14"
          output: "new_state"
          name: "dn_Add_node_15"
          op_type: "Add"
          metadata_props {
            key: "namespace"
            value: ""
          }
          metadata_props {
            key: "pkg.onnxscript.class_hierarchy"
            value: "[]"
          }
          metadata_props {
            key: "pkg.onnxscript.name_scopes"
            value: "[]"
          }
        }
        node {
          input: "q_t"
          input: "dn_v_Constant_0"
          output: "dn_v_Unsqueeze_16"
          name: "dn_Unsqueeze_node_16"
          op_type: "Unsqueeze"
          metadata_props {
            key: "namespace"
            value: ""
          }
          metadata_props {
            key: "pkg.onnxscript.class_hierarchy"
            value: "[]"
          }
          metadata_props {
            key: "pkg.onnxscript.name_scopes"
            value: "[]"
          }
        }
        node {
          input: "dn_v_Unsqueeze_16"
          input: "new_state"
          output: "dn_v_MatMul_17"
          name: "dn_MatMul_node_17"
          op_type: "MatMul"
          metadata_props {
            key: "namespace"
            value: ""
          }
          metadata_props {
            key: "pkg.onnxscript.class_hierarchy"
            value: "[]"
          }
          metadata_props {
            key: "pkg.onnxscript.name_scopes"
            value: "[]"
          }
        }
        node {
          input: "dn_v_MatMul_17"
          input: "dn_v_Constant_0"
          output: "output_t"
          name: "dn_Squeeze_node_18"
          op_type: "Squeeze"
          metadata_props {
            key: "namespace"
            value: ""
          }
          metadata_props {
            key: "pkg.onnxscript.class_hierarchy"
            value: "[]"
          }
          metadata_props {
            key: "pkg.onnxscript.name_scopes"
            value: "[]"
          }
        }
        name: "delta_recurrence"
        input {
          name: "state"
          type {
            tensor_type {
              elem_type: 1
              shape {
                dim {
                  dim_param: "B"
                }
                dim {
                  dim_param: "H"
                }
                dim {
                  dim_param: "d_k"
                }
                dim {
                  dim_param: "d_v"
                }
              }
            }
          }
        }
        input {
          name: "q_t"
          type {
            tensor_type {
              elem_type: 1
              shape {
                dim {
                  dim_param: "B"
                }
                dim {
                  dim_param: "H"
                }
                dim {
                  dim_param: "d_k"
                }
              }
            }
          }
        }
        input {
          name: "k_t"
          type {
            tensor_type {
              elem_type: 1
              shape {
                dim {
                  dim_param: "B"
                }
                dim {
                  dim_param: "H"
                }
                dim {
                  dim_param: "d_k"
                }
              }
            }
          }
        }
        input {
          name: "v_t"
          type {
            tensor_type {
              elem_type: 1
              shape {
                dim {
                  dim_param: "B"
                }
                dim {
                  dim_param: "H"
                }
                dim {
                  dim_param: "d_v"
                }
              }
            }
          }
        }
        input {
          name: "decay_t"
          type {
            tensor_type {
              elem_type: 1
              shape {
                dim {
                  dim_param: "B"
                }
                dim {
                  dim_param: "H"
                }
              }
            }
          }
        }
        input {
          name: "beta_t"
          type {
            tensor_type {
              elem_type: 1
              shape {
                dim {
                  dim_param: "B"
                }
                dim {
                  dim_param: "H"
                }
              }
            }
          }
        }
        output {
          name: "new_state"
          type {
            tensor_type {
              elem_type: 1
              shape {
                dim {
                  dim_param: "B"
                }
                dim {
                  dim_param: "H"
                }
                dim {
                  dim_param: "d_k"
                }
                dim {
                  dim_param: "d_v"
                }
              }
            }
          }
        }
        output {
          name: "output_t"
          type {
            tensor_type {
              elem_type: 1
              shape {
                dim {
                  dim_param: "B"
                }
                dim {
                  dim_param: "H"
                }
                dim {
                  dim_param: "d_v"
                }
              }
            }
          }
        }
        value_info {
          name: "dn_v_Constant_0"
          type {
            tensor_type {
              elem_type: 7
              shape {
                dim {
                  dim_value: 1
                }
              }
            }
          }
        }
        value_info {
          name: "dn_v_Constant_1"
          type {
            tensor_type {
              elem_type: 7
              shape {
                dim {
                  dim_value: 1
                }
              }
            }
          }
        }
        value_info {
          name: "dn_v_Constant_2"
          type {
            tensor_type {
              elem_type: 7
              shape {
                dim {
                  dim_value: 2
                }
              }
            }
          }
        }
        value_info {
          name: "dn_v_Unsqueeze_3"
          type {
            tensor_type {
              elem_type: 1
              shape {
                dim {
                  dim_param: "B"
                }
                dim {
                  dim_param: "H"
                }
                dim {
                  dim_value: 1
                }
                dim {
                  dim_value: 1
                }
              }
            }
          }
        }
        value_info {
          name: "dn_v_Exp_4"
          type {
            tensor_type {
              elem_type: 1
              shape {
                dim {
                  dim_param: "B"
                }
                dim {
                  dim_param: "H"
                }
                dim {
                  dim_value: 1
                }
                dim {
                  dim_value: 1
                }
              }
            }
          }
        }
        value_info {
          name: "dn_v_Mul_5"
          type {
            tensor_type {
              elem_type: 1
              shape {
                dim {
                  dim_param: "B"
                }
                dim {
                  dim_param: "H"
                }
                dim {
                  dim_param: "d_k"
                }
                dim {
                  dim_param: "d_v"
                }
              }
            }
          }
        }
        value_info {
          name: "dn_v_Unsqueeze_6"
          type {
            tensor_type {
              elem_type: 1
              shape {
                dim {
                  dim_param: "B"
                }
                dim {
                  dim_param: "H"
                }
                dim {
                  dim_value: 1
                }
                dim {
                  dim_param: "d_k"
                }
              }
            }
          }
        }
        value_info {
          name: "dn_v_MatMul_7"
          type {
            tensor_type {
              elem_type: 1
              shape {
                dim {
                  dim_param: "B"
                }
                dim {
                  dim_param: "H"
                }
                dim {
                  dim_value: 1
                }
                dim {
                  dim_param: "d_v"
                }
              }
            }
          }
        }
        value_info {
          name: "dn_v_Squeeze_8"
          type {
            tensor_type {
              elem_type: 1
              shape {
                dim {
                  dim_param: "B"
                }
                dim {
                  dim_param: "H"
                }
                dim {
                  dim_param: "d_v"
                }
              }
            }
          }
        }
        value_info {
          name: "dn_v_Sub_9"
          type {
            tensor_type {
              elem_type: 1
              shape {
                dim {
                  dim_param: "B"
                }
                dim {
                  dim_param: "H"
                }
                dim {
                  dim_param: "d_v"
                }
              }
            }
          }
        }
        value_info {
          name: "dn_v_Unsqueeze_10"
          type {
            tensor_type {
              elem_type: 1
              shape {
                dim {
                  dim_param: "B"
                }
                dim {
                  dim_param: "H"
                }
                dim {
                  dim_value: 1
                }
              }
            }
          }
        }
        value_info {
          name: "dn_v_Mul_11"
          type {
            tensor_type {
              elem_type: 1
              shape {
                dim {
                  dim_param: "B"
                }
                dim {
                  dim_param: "H"
                }
                dim {
                  dim_param: "d_v"
                }
              }
            }
          }
        }
        value_info {
          name: "dn_v_Unsqueeze_12"
          type {
            tensor_type {
              elem_type: 1
              shape {
                dim {
                  dim_param: "B"
                }
                dim {
                  dim_param: "H"
                }
                dim {
                  dim_param: "d_k"
                }
                dim {
                  dim_value: 1
                }
              }
            }
          }
        }
        value_info {
          name: "dn_v_Unsqueeze_13"
          type {
            tensor_type {
              elem_type: 1
              shape {
                dim {
                  dim_param: "B"
                }
                dim {
                  dim_param: "H"
                }
                dim {
                  dim_value: 1
                }
                dim {
                  dim_param: "d_v"
                }
              }
            }
          }
        }
        value_info {
          name: "dn_v_MatMul_14"
          type {
            tensor_type {
              elem_type: 1
              shape {
                dim {
                  dim_param: "B"
                }
                dim {
                  dim_param: "H"
                }
                dim {
                  dim_param: "d_k"
                }
                dim {
                  dim_param: "d_v"
                }
              }
            }
          }
        }
        value_info {
          name: "dn_v_Unsqueeze_16"
          type {
            tensor_type {
              elem_type: 1
              shape {
                dim {
                  dim_param: "B"
                }
                dim {
                  dim_param: "H"
                }
                dim {
                  dim_value: 1
                }
                dim {
                  dim_param: "d_k"
                }
              }
            }
          }
        }
        value_info {
          name: "dn_v_MatMul_17"
          type {
            tensor_type {
              elem_type: 1
              shape {
                dim {
                  dim_param: "B"
                }
                dim {
                  dim_param: "H"
                }
                dim {
                  dim_value: 1
                }
                dim {
                  dim_param: "d_v"
                }
              }
            }
          }
        }
      }
      type: GRAPH
    }
    metadata_props {
      key: "namespace"
      value: ""
    }
    metadata_props {
      key: "pkg.onnxscript.class_hierarchy"
      value: "[]"
    }
    metadata_props {
      key: "pkg.onnxscript.name_scopes"
      value: "[]"
    }
    metadata_props {
      key: "pkg.onnxscript.shape_inference_error"
      value: "Type of input 0 value v_Cast_3 of node Scan_node_11 not known"
    }
  }
  node {
    input: "v_Scan_11_1"
    output: "v_Transpose_12"
    name: "Transpose_node_12"
    op_type: "Transpose"
    attribute {
      name: "perm"
      ints: 1
      ints: 2
      ints: 0
      ints: 3
      type: INTS
    }
    metadata_props {
      key: "namespace"
      value: ""
    }
    metadata_props {
      key: "pkg.onnxscript.class_hierarchy"
      value: "[]"
    }
    metadata_props {
      key: "pkg.onnxscript.name_scopes"
      value: "[]"
    }
    metadata_props {
      key: "pkg.onnxscript.shape_inference_error"
      value: "Type of input 0 value v_Scan_11_1 of node Transpose_node_12 not known"
    }
  }
  node {
    input: "v_Transpose_12"
    input: "query"
    output: "output"
    name: "CastLike_node_13"
    op_type: "CastLike"
    metadata_props {
      key: "namespace"
      value: ""
    }
    metadata_props {
      key: "pkg.onnxscript.class_hierarchy"
      value: "[]"
    }
    metadata_props {
      key: "pkg.onnxscript.name_scopes"
      value: "[]"
    }
    metadata_props {
      key: "pkg.onnxscript.shape_inference_error"
      value: "Type of input 0 value v_Transpose_12 of node CastLike_node_13 not known"
    }
  }
  node {
    input: "v_Scan_11_0"
    input: "query"
    output: "present_state"
    name: "CastLike_node_14"
    op_type: "CastLike"
    metadata_props {
      key: "namespace"
      value: ""
    }
    metadata_props {
      key: "pkg.onnxscript.class_hierarchy"
      value: "[]"
    }
    metadata_props {
      key: "pkg.onnxscript.name_scopes"
      value: "[]"
    }
    metadata_props {
      key: "pkg.onnxscript.shape_inference_error"
      value: "Type of input 0 value v_Scan_11_0 of node CastLike_node_14 not known"
    }
  }
  opset_import {
    domain: ""
    version: 24
  }
  domain: "com.microsoft"
  attribute_proto {
    name: "update_rule"
    s: "gated_delta"
    type: STRING
  }
  value_info {
    name: "decay"
    type {
      tensor_type {
        elem_type: 1
      }
    }
  }
  value_info {
    name: "v_Cast_4"
    type {
      tensor_type {
        elem_type: 1
      }
    }
  }
  value_info {
    name: "v_Transpose_9"
    type {
      tensor_type {
        elem_type: 1
      }
    }
  }
}
